tutorials/CFD/00burgers/Autoencoders/ConvolutionalAe/model_2.ckpt (torch, 509831 bytes, 24 tensors)

encoder.layer1.0.weight f4 [8, 2, 5, 5]
00000000: 0e64 f436 864e bd37 84c4 e7b7 4260 2bb6
00000010: 1907 2f37 91ff bc37 a05b 84b7 d843 1db5
00000020: ff6d b0b4 f894 d3b6 1e6d d537 8fbf 9037
00000030: 1e03 2a36 f8d1 e436 bc1d 65b7 d874 4fb7
00000040: d9b4 b236 5524 cb36 7a9d 0437 e893 a3b6
00000050: c055 ef36 6ea0 dd36 357a 3fb7 ea63 d6b4
00000060: 0377 b637 b6ab ff34 9dc7 1536 61d6 15b7
00000070: 8945 8ab5 474e 05b7 4d1e f3b6 511a 1137
00000080: ac7e 64b7 eba6 4637 9b67 22b6 1152 42b7
00000090: 9d14 40b7 acda 0235 da5e 2a37 a9f8 9d36
000000a0: 6380 0038 104a 8835 9d01 8a36 d3a0 6b37
000000b0: 215f 0537 c738 e8b6 05e3 b1b6 3e15 87b6
000000c0: d9ea 55b7 6ae7 e336 a117 b23d a60f c33c
000000d0: 0109 ab3d 36de da3d daf2 033e d675 47bd
000000e0: fadb b5bd 67a6 c238 4c2d 743d c9b1 533d
000000f0: c121 18bc 2764 b6bd 4528 5b38 4fac 723d
00000100: ba23 1739 4e15 4dbe 9b66 8ebd 163e 8a3c
00000110: 5706 6538 9dfc 7a3c 6cd7 51be afa8 893c
00000120: b567 beb9 5250 0dbe 5451 8838 d6f9 8d38
00000130: 2dd3 013c e218 293d 8b84 823e 8f37 573d
00000140: c86c 26bd c608 adbc 9d32 c238 2f8b 0d39
00000150: 1087 5239 0eee 1cbe ee2c 8336 e130 5b38
00000160: ec0a bd3b 130b 1739 3a76 e0bd 7cce 3bbd
00000170: 6201 d337 bb11 833d 1421 bc38 237e c5bc
00000180: ee8c bebd 348e 01be 4330 22bc a7b3 09bd
00000190: 94f3 8436 505d 3037 754f 8b37 69f3 ba37
000001a0: dcc3 8bb7 a95e b6b7 279f 98b6 d6b1 da36
000001b0: a50a b6b7 d60a 7eb7 62df 8e37 8483 7836
000001c0: 1184 c1b6 c696 2637 5535 ce36 7e8c 0537
000001d0: d23c 13b7 dbfd a836 aa04 4ab7 5625 2437
000001e0: cf2f 8237 e349 f4b7 f363 c9b6 f98e b235
000001f0: acbb 0fb4 b634 05b7 b4bf d234 fc82 6537
00000200: 974a 8436 eed7 9cb7 445c 7935 b77e 3a35
00000210: cbd5 0637 ddc9 a7b6 9f87 3c37 d96d fa36
00000220: d50b 6637 2b3d 76b6 8c18 7eb7 7829 02b7
00000230: 4af1 1536 1943 1038 8f19 9736 3812 8e36
00000240: f1f3 6032 6c7d 5db7 67d7 6fb5 250d 1f37
00000250: 7a86 03b7 c1d9 8136 60e0 1537 4884 4037
00000260: e09e 8a37 c324 da35 f79a 9d35 aea3 2f36
00000270: 9df4 6e36 fd35 e0b5 a3fe 3036 dd1a c936
00000280: 2261 bc36 0ca9 07b8 bf9f 4eb7 0d07 0236
00000290: b7b0 17b7 582e edb7 2669 8537 23f8 1ab6
000002a0: f8c0 c937 19de 80b6 2c6e aeb7 f2a7 0138
000002b0: 5f80 41b7 4d20 f536 b539 8937 135f a237
000002c0: 1db9 8137 b0c1 6fb6 ba3e 39b7 5d40 05b7
000002d0: 8340 3db7 bb85 02b5 6927 58b7 a634 9136
000002e0: 321c 0fb8 8f0f 5bb7 cb76 88b6 6c37 7136
000002f0: 6e3c 0bb7 436b 80b6 d9a7 13b7 15b3 9eb7
00000300: 6ae8 8237 e0c1 b7b6 e13a 7b36 d7de 9cb7
00000310: 0796 80b7 bb83 6fb7 3485 cc36 c2f7 e136
00000320: 0006 8b37 7a3a 8bb7 1b45 e1b5 76e7 0a37
00000330: 2094 2537 702d bfb6 062e 0237 9a06 4137
00000340: 940e 3637 2059 9235 a421 f535 9f3d e4b6
00000350: 8496 6037 23b6 9cb4 78c6 c534 99c9 8537
00000360: 9363 61b6 6ca2 adb6 7f58 80b5 7be8 a734
00000370: 9402 e435 87d0 52b6 c613 a1b6 818d 9ab5
00000380: 24fd 7eb6 4bab 4eb7 1d4d 3136 6a77 69b6
00000390: af08 8936 258a 1eb7 06e6 0b37 9435 2434
000003a0: 7570 c0b6 e069 8b36 6ed5 7835 b098 9f36
000003b0: 2a3d 1737 7e44 85b7 8053 8b36 2c76 05b6
000003c0: e42d 12b7 db7a a0b7 be6c 9ab6 ae00 2136
000003d0: f6df 1835 00a7 8037 78c7 02b6 7642 8037
000003e0: 7dd2 4635 fcb6 04b7 847e 09be fc8c 2fbe
000003f0: 47c7 a7bd 1cc7 22be 0e2a 35be 19fa 023d
7.2834146e-06 2.2567121e-05 -2.7628856e-05 -2.5537015e-06 1.0432465e-05 2.2530354e-05 -1.5778292e-05 -5.8585783e-07
-3.2862587e-07 -6.3056323e-06 2.544239e-05 1.725534e-05 2.5333788e-06 6.819373e-06 -1.3656387e-05 -1.2365366e-05
5.325867e-06 6.054101e-06 7.9044785e-06 -4.874997e-06 7.1327377e-06 6.6049897e-06 -1.1412941e-05 -3.9933303e-07
2.175151e-05 4.7622387e-07 2.231892e-06 -8.931006e-06 -1.0302039e-06 -7.945643e-06 -7.245492e-06 8.648801e-06
-1.3619352e-05 1.1840583e-05 -2.4200187e-06 -1.1582409e-05 -1.1448891e-05 4.8746983e-07 1.0154874e-05 4.7079125e-06
3.0637148e-05 1.0154345e-06 4.1129083e-06 1.4044536e-05 7.949567e-06 -6.9207485e-06 -5.3014396e-06 -4.0257864e-06
-1.2750469e-05 6.7920673e-06 0.08695913 0.023811173 0.08351327 0.106869146 0.1288561 -0.04869636
-0.08879848 9.281636e-05 0.05961351 0.05168322 -0.009285391 -0.08905821 5.2251173e-05 0.059246358
0.00014413791 -0.20027658 -0.06953164 0.016875308 5.460376e-05 0.015319017 -0.20492333 0.016804067
-0.00036316892 -0.13800171 6.500134e-05 6.7699395e-05 0.007923883 0.041283496 0.25491747 0.05254322
-0.040631086 -0.021122348 9.260068e-05 0.00013498658 0.00020077475 -0.15325186 3.9093347e-06 5.225919e-05
0.0057691243 0.00014404608 -0.1096005 -0.045851216 2.5153804e-05 0.06399866 8.9707e-05 -0.024107998
-0.09304224 -0.12651902 -0.009899202 -0.033618595 3.962263e-06 1.05121435e-05 1.6607091e-05 2.2286275e-05
-1.6661295e-05 -2.174017e-05 -4.548481e-06 6.517609e-06 -2.1701047e-05 -1.5142103e-05 1.703174e-05 3.7031432e-06
-5.767223e-06 9.929476e-06 6.145487e-06 7.960129e-06 -8.776044e-06 5.036343e-06 -1.2041224e-05 9.783855e-06
1.551947e-05 -2.9121473e-05 -6.0019024e-06 1.3303644e-06 -1.3386187e-07 -7.9396905e-06 3.925503e-07 1.3679961e-05
3.94259e-06 -1.86972e-05 9.289399e-07 6.9474794e-07 8.0368e-06 -5.000488e-06 1.123725e-05 7.4633685e-06
1.3711823e-05 -3.669246e-06 -1.5145295e-05 -7.758259e-06 2.234318e-06 3.4394765e-05 4.503126e-06 4.2340507e-06
1.3093982e-08 -1.3201829e-05 -8.934789e-07 9.480199e-06 -7.839519e-06 3.8698495e-06 8.933333e-06 1.1474891e-05
1.6524864e-05 1.6252965e-06 1.1742512e-06 2.6172306e-06 3.5607147e-06 -1.6705013e-06 2.6374262e-06 5.993394e-06
5.6141444e-06 -3.2343945e-05 -1.2315751e-05 1.9375614e-06 -9.041446e-06 -2.8274182e-05 1.5903799e-05 -2.3092223e-06
2.4050925e-05 -3.840553e-06 -2.079372e-05 3.0912408e-05 -1.1533585e-05 7.3053293e-06 1.6358545e-05 1.9356177e-05
1.5464198e-05 -3.5726516e-06 -1.1041464e-05 -7.9424035e-06 -1.1280298e-05 -4.862338e-07 -1.2883779e-05 4.327466e-06
-3.4120116e-05 -1.305704e-05 -4.066945e-06 3.5944058e-06 -8.2991155e-06 -3.827184e-06 -8.800963e-06 -1.891846e-05
1.5605434e-05 -5.476395e-06 3.7436187e-06 -1.8700417e-05 -1.5328651e-05 -1.4276181e-05 6.0951807e-06 6.7343653e-06
1.6572885e-05 -1.6597322e-05 -1.6783919e-06 8.279332e-06 9.869254e-06 -5.697533e-06 7.7593195e-06 1.15052335e-05
1.085144e-05 1.0903786e-06 1.8263713e-06 -6.802103e-06 1.3386485e-05 -2.9189786e-07 3.6838514e-07 1.5948712e-05
-3.3585573e-06 -5.17471e-06 -9.562499e-07 3.1275326e-07 1.6988074e-06 -3.1413817e-06 -4.800476e-06 -1.1515077e-06
-3.7996297e-06 -1.2318439e-05 2.6419941e-06 -3.4789214e-06 4.083929e-06 -9.449698e-06 8.338602e-06 1.5293182e-07
-5.7351376e-06 4.1548483e-06 9.269778e-07 4.7563444e-06 9.014542e-06 -1.588673e-05 4.1522435e-06 -1.988733e-06
-8.712963e-06 -1.9130695e-05 -4.602217e-06 2.3991265e-06 5.695032e-07 1.5336554e-05 -1.9487616e-06 1.5289737e-05
7.406705e-07 -7.9104175e-06 -0.13427168 -0.17143625 -0.08192306 -0.15896267 -0.17691824 0.031976793

encoder.layer1.0.bias f4 [8]
00000000: 749f 85b4 ebcc f6bc a494 89b5 7282 ddb5
00000010: e7fd c9b4 17f4 9e3c 617b aa3b 59ab e3b5
-2.4889198e-07 -0.03012701 -1.0250556e-06 -1.6503748e-06 -3.7623906e-07 0.0194035 0.005202696 -1.6962687e-06

encoder.layer2.0.weight f4 [16, 8, 3, 3]
00000000: ad30 09b8 78fe 1835 ad94 9eb7 e528 c9b7
00000010: 925a 4737 66e3 6537 e436 0f36 7752 19b7
00000020: bf33 7737 de0b e3b7 6ae1 a5b6 0076 8ab7
00000030: d29e 07b5 f493 b234 1b98 97b6 d0c1 6136
00000040: b4cf 9536 33a9 2137 a0dd 82b7 113c 5bb8
00000050: f9c4 3bb7 6138 0bb6 9180 81b6 e687 0fb7
00000060: 3790 09b6 cc56 3ab7 28d3 79b7 4920 e137
00000070: baa1 bbb7 615b 2237 f8cb b2b7 b0c2 d036
00000080: de53 01b7 3545 5937 9cbd eeb6 12f1 63b6
00000090: ab01 b7b7 c930 c936 6663 1638 b7f8 95b7
000000a0: 9295 03b7 b730 4937 b467 0f38 c257 73b7
000000b0: ac2d 9033 cc72 88b6 248a a935 209d 5137
000000c0: e2dc ab36 afd6 b636 8407 8737 b281 5436
000000d0: a17e 5136 11ae a3b6 c8f2 8fb6 1469 2ab5
000000e0: 6203 0bb7 2644 feb6 2aa7 3eb7 7567 7036
000000f0: 6f19 9bb6 83fd c3b6 89ad 87b7 5671 61b7
00000100: 90dd 9eb7 3ff0 81b7 0602 aeb7 d9ea 27b7
00000110: 6a72 db37 6d55 ff36 58eb a537 7c3e 37b7
00000120: fbc1 9db5 63a5 70b7 5d32 fcb6 54fa b0b7
00000130: 9717 a7b6 f644 c8b5 e155 40b7 d7cb 6936
00000140: 3a91 01b8 4252 aeb7 6e13 9537 37ab 48b6
00000150: 28db b8b7 1937 9e37 4027 dab7 91e5 36b7
00000160: 91c4 b636 2744 d4b6 e949 17b8 5c92 7537
00000170: 7a59 4e37 4252 b037 97d6 f1b6 6e27 8db7
00000180: 762f 84b7 46f6 e635 49e0 35b7 315f 5936
00000190: 552d 26b7 b635 3837 00c8 ddb6 f9e0 10b7
000001a0: 5c9b 9635 1d42 5c36 4f09 0bb7 c122 5eb6
000001b0: c031 21b7 edd5 bcb6 1a8e 8f36 4803 9cb3
000001c0: fa46 ed37 003e fdb6 2b30 49b7 0cce 01b8
000001d0: d6c3 2337 d718 72b6 59b3 a336 1b44 1437
000001e0: 8304 e0b6 c4ee 02b7 937c 24b6 81e1 8db6
000001f0: 946c 4eb6 54da e4b4 da82 8d36 14e8 4335
00000200: 11be 9837 350c 4e37 77dd 2d37 db71 99b4
00000210: a118 1c38 3fda e0b7 80e6 64b7 9c53 ae35
00000220: 1495 3ab8 0dc1 a537 c2c1 4337 cb72 26b7
00000230: e82a 2ab7 2df8 ae37 cc7c 3f37 a0e1 d1b7
00000240: 4c25 adb6 fd22 ecb5 5cd1 1fb7 2c8c 24b5
00000250: 11a2 6fb8 f849 3435 8376 6ab7 2469 2c37
00000260: 0cfe 93b6 2047 1a37 8334 fdb6 8070 fb36
00000270: 6826 3b37 e85b 00b6 3a5c 4137 0a96 9736
00000280: 42c6 ba37 73d8 8cb5 5d3f 7737 75ec 7e37
00000290: 454c ab37 26c6 2636 50a4 07b7 9a16 4db7
000002a0: 1cfa e4b4 fecb 5038 7fae 9eb7 ea1d 9137
000002b0: b677 aa36 acb1 1937 86e4 0537 1c38 9c37
000002c0: c287 f337 6e8f 83b6 4cc2 c1b7 3b06 0537
000002d0: 4337 bc36 dc6f 0438 3fa0 8fb7 e56c 0fb5
000002e0: 3f56 da37 95c6 97b2 482c f2b2 29ef 9fb6
000002f0: ec2d 53b8 8c79 adb6 145e 6837 f146 5435
00000300: faf2 42b7 a94f dbb6 8e18 9336 f5b4 c7b6
00000310: 1891 9c36 1a94 61b5 13d4 eab6 8273 6bb6
00000320: eae3 5836 c105 ce37 26dd 9037 33c0 2437
00000330: dcf0 9237 a02a b8b7 fb84 8037 89c8 55b5
00000340: 9a50 0cb7 7383 10b7 c846 aa35 d0e3 de36
00000350: 91a4 b837 ce71 2bb7 06c6 a435 94b9 0bb8
00000360: 5ebd b6b6 2e47 cd36 7c1d 5336 2ce4 afb6
00000370: 8b28 8b37 b0d0 87b6 59bb 5337 64d2 5c36
00000380: 19e0 f436 2b84 9537 6996 2338 cddc a83d
00000390: 0eff 9ab7 d0b9 eab7 59b3 cab6 4950 1eb7
000003a0: affe 41b8 f5d8 e4bc 7340 b3b6 8692 c0b5
000003b0: fc44 0237 d017 7636 471f 4cb6 37ba 9f36
000003c0: fd85 d737 723c feb6 1e8f b7b6 9232 9636
000003d0: 83a8 0fb7 f01c ba35 efc2 bfb6 4e0e 06b6
000003e0: 7436 e836 5e8c 5b37 864c 83b7 ce54 fdb6
000003f0: cfa2 0837 2300 3037 0732 7535 f16a 6437
-3.270868e-05 5.6994713e-07 -1.89043e-05 -2.398011e-05 1.1882412e-05 1.3702409e-05 2.134061e-06 -9.138711e-06
1.4734395e-05 -2.7066035e-05 -4.943625e-06 -1.650583e-05 -5.0522533e-07 3.3262734e-07 -4.517858e-06 3.3640426e-06
4.464726e-06 9.635743e-06 -1.560041e-05 -5.226961e-05 -1.119193e-05 -2.074543e-06 -3.8594667e-06 -8.5551055e-06
-2.0498535e-06 -1.1106673e-05 -1.489072e-05 2.6837124e-05 -2.2367447e-05 9.677228e-06 -2.1314234e-05 6.2215477e-06
-7.708526e-06 1.2950321e-05 -7.115026e-06 -3.3965957e-06 -2.1816077e-05 5.995946e-06 3.585536e-05 -1.7878001e-05
-7.843033e-06 1.1991876e-05 3.4190438e-05 -1.4504361e-05 6.71383e-08 -4.06648e-06 1.2631685e-06 1.2493954e-05
5.1219113e-06 5.449015e-06 1.6096754e-05 3.1665954e-06 3.1217135e-06 -4.8780425e-06 -4.2899956e-06 -6.3482844e-07
-8.285833e-06 -7.5777234e-06 -1.1363803e-05 3.5823007e-06 -4.622321e-06 -5.8409655e-06 -1.6174063e-05 -1.3437433e-05
-1.893824e-05 -1.5489872e-05 -2.0743359e-05 -1.0008655e-05 2.6160113e-05 7.609537e-06 1.9779123e-05 -1.0922198e-05
-1.1753867e-06 -1.4343622e-05 -7.5160483e-06 -2.1097403e-05 -4.979734e-06 -1.4921231e-06 -1.1464087e-05 3.4838356e-06
-3.089125e-05 -2.078072e-05 1.7771232e-05 -2.9901983e-06 -2.2036562e-05 1.8860725e-05 -2.6005902e-05 -1.0901495e-05
5.446906e-06 -6.3260263e-06 -3.607004e-05 1.4637215e-05 1.229939e-05 2.101914e-05 -7.2073412e-06 -1.682687e-05
-1.5757727e-05 1.720801e-06 -1.0840661e-05 3.2390928e-06 -9.904926e-06 1.097976e-05 -6.6095963e-06 -8.635449e-06
1.1221086e-06 3.2821038e-06 -8.287213e-06 -3.3100807e-06 -9.607931e-06 -5.627741e-06 4.278275e-06 -7.264913e-08
2.8285653e-05 -7.5472053e-06 -1.1991749e-05 -3.0947893e-05 9.761154e-06 -3.6075269e-06 4.8786574e-06 8.8373445e-06
-6.6762454e-06 -7.804196e-06 -2.4510416e-06 -4.2283796e-06 -3.0759593e-06 -4.2627164e-07 4.2173606e-06 7.298088e-07
1.8208319e-05 1.2281399e-05 1.0363167e-05 -2.8581312e-07 3.7216236e-05 -2.680451e-05 -1.36435265e-05 1.2988344e-06
-4.4484696e-05 1.9759429e-05 1.16680185e-05 -9.921098e-06 -1.01427795e-05 2.0857982e-05 1.1413544e-05 -2.5019806e-05
-5.1601437e-06 -1.7593553e-06 -9.525884e-06 -6.129874e-07 -5.7132977e-05 6.7162864e-07 -1.397508e-05 1.0276479e-05
-4.4105163e-06 9.195675e-06 -7.5461007e-06 7.4934796e-06 1.1155011e-05 -1.9126983e-06 1.152517e-05 4.5176175e-06
2.2265249e-05 -1.0493808e-06 1.47371e-05 1.5194634e-05 2.0420304e-05 2.4851265e-06 -8.084884e-06 -1.22242145e-05
-4.2650288e-07 4.9781047e-05 -1.8916324e-05 1.7299277e-05 5.080331e-06 9.160878e-06 7.980625e-06 1.8622777e-05
2.9031075e-05 -3.9208016e-06 -2.309787e-05 7.928868e-06 5.60927e-06 3.157543e-05 -1.7121549e-05 -5.3430114e-07
2.6027787e-05 -1.7669018e-08 -2.8192645e-08 -4.766411e-06 -5.034909e-05 -5.1699517e-06 1.3850182e-05 7.907939e-07
-1.16198735e-05 -6.5359823e-06 4.3838e-06 -5.9517283e-06 4.6660534e-06 -8.403455e-07 -6.998432e-06 -3.5084963e-06
3.2319172e-06 2.4559793e-05 1.7269118e-05 9.819912e-06 1.7516715e-05 -2.1954358e-05 1.5320713e-05 -7.96405e-07
-8.363417e-06 -8.613674e-06 1.2686587e-06 6.6426364e-06 2.2011141e-05 -1.02188915e-05 1.2276585e-06 -3.3313016e-05
-5.446068e-06 6.1177625e-06 3.1458612e-06 -5.241969e-06 1.658897e-05 -4.047608e-06 1.26202e-05 3.2905018e-06
7.297855e-06 1.782373e-05 3.900231e-05 0.082452394 -1.8477e-05 -2.79815e-05 -6.040948e-06 -9.436227e-06
-4.625198e-05 -0.027935484 -5.3421186e-06 -1.4347759e-06 7.7646655e-06 3.6670717e-06 -3.0416575e-06 4.7602475e-06
2.569239e-05 -7.5768266e-06 -5.470486e-06 4.4762355e-06 -8.562699e-06 1.3866502e-06 -5.714937e-06 -1.9975882e-06
6.920478e-06 1.3086099e-05 -1.5652051e-05 -7.54986e-06 8.1441385e-06 1.0490449e-05 9.134241e-07 1.3614758e-05

encoder.layer2.0.bias f4 [16]
00000000: 6235 5a36 b212 09b7 ba78 ce36 dd28 09be
00000010: ddb9 0737 4e32 2abe f123 8434 091f 0e3a
00000020: 31f8 04b9 91c9 adb6 999f b7bd 91c1 3cbe
00000030: 8467 dd3d bf4f 0236 4418 87bd 6f1e 9c36
3.2515604e-06 -8.170189e-06 6.153333e-06 -0.13394494 8.089902e-06 -0.16620752 2.4613067e-07 0.0005421495
-0.0001268096 -5.179267e-06 -0.08965988 -0.18433215 0.1081076 1.9417928e-06 -0.06596425 4.6527052e-06

encoder.layer3.0.weight f4 [32, 16, 3, 3]
00000000: f92a 6ab7 b7cd e7b7 cfe0 dc36 bcbf bb37
00000010: a9b5 18b6 ae64 8c37 2632 68b7 d82f 8837
00000020: c8db 6fb7 1282 0337 f5f5 9eb7 478c 3db5
00000030: 7d85 46b7 7a13 a5b7 6719 cb37 5906 a7b6
00000040: c213 07b7 b727 91b7 799c 25b6 154a 24b7
00000050: 7f10 0138 774c edb7 f443 67b7 9b03 26b5
00000060: fdb5 d337 5e70 ccb6 2d23 ad37 b8b2 3937
00000070: 70ce b036 c0a6 29b7 fd2b 14b7 80e4 2c37
00000080: 6d56 2eb7 5b24 3cb7 d052 22b7 4098 79b6
00000090: aebe 4d38 11f3 d7b6 f4fb beb7 2d71 9133
000000a0: 29e6 ee35 3f64 de36 d739 3a35 10d0 a537
000000b0: f36c d836 5421 a2b7 d8e5 62b7 47b3 3035
000000c0: 5dab b1b6 d56a 07b6 ad49 e0b5 ca09 90b6
000000d0: 5d49 04b7 438d 77b7 ef6f b537 5b77 5fb5
000000e0: 7c67 dcb6 f1c8 04b8 7725 d1b5 ac1f 54b7
000000f0: 5e10 f4b5 fbdd af35 fe27 2737 105a 4cb7
00000100: 9eea 1d36 bb0e 0a35 9bfa c6b7 836b 7c37
00000110: 0e7d e836 c835 64b7 a140 58b7 78c9 dd36
00000120: af59 9ab7 fff2 5236 9ae2 01b8 ba94 c737
00000130: 3521 6db7 534b d7b7 2eed 77b7 2c3f 7b36
00000140: 2247 b237 3931 39b8 15c7 00b7 0b33 5a38
00000150: 40e3 4a35 e7f4 f7b5 c672 42b7 d999 1c36
00000160: c719 0438 2c8a 7236 329e 7b35 3842 8eb6
00000170: 9956 8237 62e0 1238 5674 7b37 cd83 5037
00000180: 2a6f 0337 e109 99b6 e238 b837 1fe2 c1b7
00000190: 811b b5b6 427a bbb7 eb2d 22b7 6cb0 cab6
000001a0: c04b e037 e396 a6b7 176a 0737 4f21 8537
000001b0: d563 bab7 82c0 0937 5035 a3b6 35d0 4c37
000001c0: 742f e937 398c eab6 be21 58b7 4827 37b7
000001d0: ccbc ee36 65fa 16b8 b222 28b7 0ac4 9137
000001e0: 1af6 4637 4cb1 46b6 2fa9 a837 f399 a5b7
000001f0: d0b0 5037 a79a e4b7 807d 1538 03f5 1236
00000200: 2ba9 7137 4d33 22b8 416e 6637 a908 bd36
00000210: d657 cfb6 d0c5 9db4 0046 7d37 f40b b2b5
00000220: 2bc9 b735 3157 2bb7 7e27 8f36 2e6c 4037
00000230: c083 5e37 7a1c b837 a510 0fb8 8a3e 1e36
00000240: 61d7 0638 c0c1 7ab7 dff6 56b7 abc7 d7b5
00000250: 471f afb7 9b66 4237 8918 0237 bbfd 3b37
00000260: 76aa 6d37 8da6 83b7 840e 42b7 1f6f 0836
00000270: 239f 6fb7 3678 e037 6e55 41b7 083d 1338
00000280: 6167 9037 7576 b7b7 7a84 42b7 b56c b0b7
00000290: d523 f3b6 16ee 5db7 ee6f 6435 931d f437
000002a0: cb07 02b7 1d78 78b7 4078 2938 8aa4 a5b7
000002b0: 2759 1737 30d7 cab6 a855 c1b6 022d 7db7
000002c0: 44d7 90b6 2296 23b7 04bf 2036 e731 3bb7
000002d0: ce1e ceb7 f0d3 dfb7 85b0 5a37 51f7 05b8
000002e0: dbbd 9a37 20d3 a1b6 d5f4 89b6 e83c 93b7
000002f0: 18ae 8bb6 d3af 49b7 7fee 4237 ee5c 9a35
00000300: b502 b031 d5e2 9ab4 b580 4734 dc62 04b6
00000310: 835d 4eb5 eb80 87b7 ad73 9937 e653 23b7
00000320: 6614 07b7 2f1c c535 532b ad36 035e 4937
00000330: 2d25 0f37 9164 aab7 f41e af37 eea5 5a37
00000340: e9b7 93b6 c626 bcb6 7af9 14b7 1c47 2738
00000350: b222 a2b6 7723 89b6 cb57 6135 5a55 92b7
00000360: 4c6b 6b37 828c 1ab7 c11f 3937 6af2 4eb7
00000370: 13c7 8537 484e 3ab6 94a2 7337 4ed1 b8b6
00000380: a19f 4db7 7000 cab7 9d38 b437 9a79 8eb7
00000390: 781b 98b7 b814 2bb7 fcc7 0237 1302 d5b7
000003a0: 1146 78b6 a898 9f37 5272 0937 96d2 79b6
000003b0: 5265 7837 c8a2 0236 cb8e 0eb6 4d11 67b7
000003c0: 66d4 97b6 22a5 c5b5 11bc 87b7 d2d0 95b6
000003d0: 0a2f c636 3cac e7b6 cfac 9035 21ca 6eb5
000003e0: 5126 bab5 eca9 c6b7 506d c236 3be6 3734
000003f0: 4391 4ab8 3c0a 3335 d428 95b7 68f4 50b7
-1.3957492e-05 -2.763314e-05 6.582682e-06 2.238142e-05 -2.2755505e-06 1.6736183e-05 -1.3839954e-05 1.6234742e-05
-1.4296682e-05 7.838493e-06 -1.89496e-05 -7.0612117e-07 -1.18328e-05 -1.9678602e-05 2.4211315e-05 -4.977727e-06
-8.051227e-06 -1.730384e-05 -2.4677995e-06 -9.79241e-06 3.077136e-05 -2.8288208e-05 -1.37844945e-05 -6.1845066e-07
2.5237905e-05 -6.092755e-06 2.0639587e-05 1.10684705e-05 5.2692412e-06 -1.01120095e-05 -8.831729e-06 1.0305201e-05
-1.0391331e-05 -1.1214138e-05 -9.675234e-06 -3.7192513e-06 4.9053393e-05 -6.435796e-06 -2.276709e-05 6.772675e-08
1.7799367e-06 6.6277858e-06 6.937457e-07 1.976642e-05 6.449985e-06 -1.9327425e-05 -1.3524164e-05 6.582599e-07
-5.2949604e-06 -2.0178752e-06 -1.6710743e-06 -4.292674e-06 -7.884894e-06 -1.4755237e-05 2.1629005e-05 -8.324766e-07
-6.568558e-06 -3.1658394e-05 -1.5582617e-06 -1.2643559e-05 -1.818418e-06 1.3103121e-06 9.963287e-06 -1.2180317e-05
2.3531388e-06 5.143044e-07 -2.3720137e-05 1.50454025e-05 6.928697e-06 -1.3602381e-05 -1.2889651e-05 6.6097673e-06
-1.8399993e-05 3.143388e-06 -3.0967036e-05 2.3791905e-05 -1.4134032e-05 -2.5665073e-05 -1.477757e-05 3.7438685e-06
2.1252377e-05 -4.415328e-05 -7.675747e-06 5.2022788e-05 7.5581556e-07 -1.847421e-06 -1.1590024e-05 2.3335363e-06
3.149526e-05 3.6141237e-06 9.373499e-07 -4.2396387e-06 1.5537533e-05 3.5018085e-05 1.4987852e-05 1.2428453e-05
7.834091e-06 -4.5609054e-06 2.1960997e-05 -2.3112689e-05 -5.3974222e-06 -2.2349068e-05 -9.666644e-06 -6.0406073e-06
2.6738155e-05 -1.9859004e-05 8.071328e-06 1.5870346e-05 -2.2219416e-05 8.210658e-06 -4.863985e-06 1.22078245e-05
2.7797862e-05 -6.9900675e-06 -1.28824595e-05 -1.0916796e-05 7.1149316e-06 -3.5995985e-05 -1.0021658e-05 1.7376635e-05
1.185902e-05 -2.96075e-06 2.0105943e-05 -1.9741221e-05 1.24389335e-05 -2.7251734e-05 3.564125e-05 2.189831e-06
1.4404107e-05 -3.8671587e-05 1.3734739e-05 5.633647e-06 -6.179306e-06 -2.9387456e-07 1.5096273e-05 -1.3265512e-06
1.369311e-06 -1.0212695e-05 4.2663296e-06 1.1469279e-05 1.3262907e-05 2.194777e-05 -3.410936e-05 2.3580237e-06
3.2148677e-05 -1.4946272e-05 -1.2812873e-05 -1.6076859e-06 -2.087619e-05 1.1587191e-05 7.754316e-06 1.1205145e-05
1.4165989e-05 -1.5693973e-05 -1.1566681e-05 2.033026e-06 -1.4282562e-05 2.6758858e-05 -1.1523587e-05 3.510437e-05
1.7214277e-05 -2.187046e-05 -1.1594146e-05 -2.1031456e-05 -7.2461357e-06 -1.322806e-05 8.50995e-07 2.9100838e-05
-7.750418e-06 -1.4809918e-05 4.040473e-05 -1.9746152e-05 9.021059e-06 -6.0451202e-06 -5.76182e-06 -1.5090454e-05
-4.3165946e-06 -9.750513e-06 2.3953044e-06 -1.1157687e-05 -2.4571458e-05 -2.6682363e-05 1.3034912e-05 -3.1940002e-05
1.8446639e-05 -4.822752e-06 -4.1114204e-06 -1.7552127e-05 -4.16279e-06 -1.2021471e-05 1.161883e-05 1.150094e-06
5.122582e-09 -2.8849777e-07 1.8580143e-07 -1.9727077e-06 -7.687706e-07 -1.6153286e-05 1.8292887e-05 -9.735091e-06
-8.051376e-06 1.4685846e-06 5.1608454e-06 1.2002422e-05 8.53212e-06 -2.031241e-05 2.087604e-05 1.3032446e-05
-4.4023514e-06 -5.6073504e-06 -8.879573e-06 3.988213e-05 -4.8320153e-06 -4.087047e-06 8.394679e-07 -1.7444301e-05
1.40320735e-05 -9.21183e-06 1.1034253e-05 -1.2334998e-05 1.5947537e-05 -2.7761726e-06 1.4521782e-05 -5.5079936e-06
-1.2256119e-05 -2.408048e-05 2.1484035e-05 -1.6984344e-05 -1.8132603e-05 -1.0197218e-05 7.795166e-06 -2.5392545e-05
-3.6995664e-06 1.9025363e-05 8.192454e-06 -3.7226469e-06 1.4805542e-05 1.946626e-06 -2.1242765e-06 -1.3772701e-05
-4.524877e-06 -1.4725704e-06 -1.618083e-05 -4.464856e-06 5.906336e-06 -6.904387e-06 1.077913e-06 -8.8956045e-07
-1.3869231e-06 -2.3682565e-05 5.794376e-06 1.712696e-07 -4.829584e-05 6.669759e-07 -1.7781196e-05 -1.2454671e-05

encoder.layer3.0.bias f4 [32]
00000000: 42f2 5d36 fb6d 46b7 e978 0ab7 6512 b2bc
00000010: b6bb 31b5 3701 18b7 1353 2ab5 6779 be35
00000020: 09c9 d336 ae8d cbbd fd02 c6b5 17ac dd3d
00000030: 9fcb 2a36 8e1a 1a37 c199 f2bd cd9b 6336
00000040: 5b44 2abe c5c3 5e3c ac87 99b6 2966 4e36
00000050: 128f 1236 d6ce d4b5 b617 bd36 4445 453e
00000060: 8e04 ffb6 ab4b b6be 127c 0437 e44a 4136
00000070: 3810 ff36 4012 b036 4f79 8336 e2d9 cbb6
3.3072579e-06 -1.18273265e-05 -8.253593e-06 -0.021737287 -6.6210794e-07 -9.060189e-06 -6.3450824e-07 1.4191436e-06
6.3116936e-06 -0.09939133 -1.4753019e-06 0.10823839 2.5450497e-06 9.185298e-06 -0.118457325 3.3916324e-06
-0.16627638 0.01359648 -4.5755496e-06 3.0755857e-06 2.1838973e-06 -1.5855428e-06 5.6353992e-06 0.19264704
-7.6001224e-06 -0.35604605 7.8967005e-06 2.8802833e-06 7.6014803e-06 5.2473333e-06 3.9182264e-06 -6.0752363e-06

encoder.layer4.0.weight f4 [64, 32, 3, 3]
00000000: d105 5138 0e12 2336 b158 e4b5 28ca 02b8
00000010: 1363 4037 ed92 56b7 0af6 9737 fbe5 5936
00000020: a41c 24b7 75ce 5d37 2433 4eb7 0e8f 8eb7
00000030: b07d 99b7 a724 0737 1239 99b3 3cb7 8335
00000040: 70d8 5536 8aaa e834 19b7 28b7 2752 9337
00000050: f76c f7b6 a933 29b7 6eb9 68b8 a0c6 e7b5
00000060: 8687 78b7 f1c2 54b7 665f 8136 b41a 06b7
00000070: 1d0e 10b7 de93 08b8 0efa 3937 1e7d 9a34
00000080: c80c 2bb5 faba 9db7 0600 7237 dbd7 18b7
00000090: 78a6 6136 cfe2 64b6 9ba2 afb7 cddc 48b7
000000a0: 447a 2bb6 4e1c 47b7 915d 2537 7a42 f237
000000b0: 6ee0 f337 9aad feb7 5047 8db7 5ecc 92b7
000000c0: 2aed 90b6 acf5 04b7 0fa2 85b5 f557 aa36
000000d0: bb21 f1b6 eee6 e7b6 e5ab f236 35b7 9a36
000000e0: 3a4c 38b7 911c 80b7 8576 f737 35b5 ffb7
000000f0: c919 37b7 c094 abb6 1fae 9fb7 cc3f 0fb8
00000100: 2eee 8bb7 17da 35b7 1f99 aab6 fae1 beb5
00000110: c591 b637 4ac6 8cb7 a81d 8736 2d91 0737
00000120: c6ea d3b3 7daa 7337 a4fa afb6 ddfc f6b6
00000130: 6e55 7037 dcc6 84b7 df6e 18b6 3c95 72b6
00000140: aedf d037 de73 4337 f3dc c336 de5c 35b6
00000150: ba8f 0637 0d18 06b7 8431 97b5 6600 dc37
00000160: 5552 6cb7 638e afb6 4529 7637 68fc e7b6
00000170: a634 2738 c7c5 7b36 017b 4f37 4e4c 0d37
00000180: 9168 d2b6 a7f2 9bb6 ae32 03b8 adce 9cb6
00000190: 6edd c8b7 4d6f 2bb7 d291 7a37 0085 79b7
000001a0: 9798 28b7 c2fa f5b7 25fd 7a37 6f21 0c37
000001b0: 377b 5ab6 ef8e 6d35 5669 0037 b4c4 60b7
000001c0: cf91 f736 644d 4db6 5770 7cb6 1647 c6b7
000001d0: 45f4 4e37 2ac5 bbb7 fe75 ee37 e1c4 6db6
000001e0: 98e9 0f38 51ea 5337 3d8e dcb7 0606 dab7
000001f0: 12b8 02b7 1c60 a237 b6cb 0337 a96d 8237
00000200: 256a 11b7 ed34 14b7 d1f5 cf37 d8aa 81b5
00000210: c3f9 0f37 c691 23b8 e43a e235 f38f 0938
00000220: 91ad 6c37 a1e4 d2b6 eaf0 af37 72ac 5037
00000230: b8ab 8737 09fd 6d37 5e49 15b8 3cc2 dd36
00000240: b088 0137 a34e 52b7 cd7a 51b7 9784 75b6
00000250: 2fb9 d437 e119 f0b6 943b 5fb7 c5d0 9337
00000260: 29e0 9334 4aa8 dfb5 10a5 4d36 2232 94b6
00000270: 2fc3 4c37 cecd d635 1a0a bc37 94e5 9c37
00000280: 965d 43b7 6472 8eb7 0089 4938 c818 bdb7
00000290: f965 7c36 2e35 3eb7 6ee8 a7b7 2f2d 4bb7
000002a0: 3727 afb6 2dad 2eb8 6954 f136 6b7c f1b7
000002b0: 634d fd35 1c4f 1bb8 59e5 8b36 65fb ecb7
000002c0: dfba 8eb7 ad6e a435 a6d8 7fb7 a266 eeb7
000002d0: 20c7 e5b7 3431 fc35 e429 1538 2a39 a9b5
000002e0: c717 0937 5f73 ccb7 31c8 2c37 2e77 a236
000002f0: c034 88b7 ac6d 0bb8 5e91 6ab8 a992 bcb7
00000300: d9e0 3bb7 d170 2736 80ac 5c37 3574 b8b6
00000310: c50c da36 5d25 9b36 37f9 c2b7 21de 1eb7
00000320: ad52 22b7 09fc ae37 e4f8 4436 489e a6b7
00000330: 8443 9d37 9a85 edb7 9b66 a436 2c78 09b7
00000340: 986f 1338 a814 c237 7b29 e935 5102 d336
00000350: 0dc4 d4b5 186b dc35 aaec 9fb7 1651 8837
00000360: 5260 6937 32b3 0938 421b 2c37 0298 bc36
00000370: 031f e2b5 5c8d 48b7 f38a b737 c8f8 9f36
00000380: 867a de36 1417 f436 36a6 97b5 08f0 aab6
00000390: 5f0d 67b7 995b 3837 9ec8 a937 13c5 bdb7
000003a0: eb3c 5a35 0d5f b337 967f cdb7 3c19 0837
000003b0: b728 a537 8133 9036 bc51 b837 d58c 3cb5
000003c0: 825a 9bb7 21d8 e433 f12f 3d36 da6b bab7
000003d0: a440 37b7 a09a 1337 21f5 fdb6 2f99 8037
000003e0: 0bda eb35 e64b d4b6 2ee8 8eb7 fc2e 2b37
000003f0: ea80 2d37 340f 95b4 8101 a9b6 065e 9db6
4.98349e-05 2.4299402e-06 -1.7013136e-06 -3.1182688e-05 1.1467159e-05 -1.2789603e-05 1.8115174e-05 3.2469386e-06
-9.78183e-06 1.3220696e-05 -1.2290464e-05 -1.6994334e-05 -1.829755e-05 8.055161e-06 -7.134999e-08 9.813589e-07
3.1865457e-06 4.333745e-07 -1.0056211e-05 1.756202e-05 -7.373859e-06 -1.0085213e-05 -5.5485805e-05 -1.7268649e-06
-1.4813506e-05 -1.2681573e-05 3.8556054e-06 -7.99324e-06 -8.586355e-06 -3.256264e-05 1.108508e-05 2.877577e-07
-6.3721063e-07 -1.8802926e-05 1.44243295e-05 -9.110164e-06 3.362451e-06 -3.4106667e-06 -2.0937345e-05 -1.1972338e-05
-2.5552154e-06 -1.18679145e-05 9.8565515e-06 2.8879604e-05 2.9072366e-05 -3.0359999e-05 -1.6841717e-05 -1.7499722e-05
-4.319144e-06 -7.925013e-06 -9.956437e-07 5.0766344e-06 -7.1862864e-06 -6.91122e-06 7.232173e-06 4.6108858e-06
-1.09850025e-05 -1.5272091e-05 2.9499884e-05 -3.048275e-05 -1.0913654e-05 -5.113514e-06 -1.9035358e-05 -3.4153272e-05
-1.6681002e-05 -1.0839219e-05 -5.0842204e-06 -1.4221871e-06 2.176397e-05 -1.6781636e-05 4.026766e-06 8.080428e-06
-9.868158e-08 1.4523624e-05 -5.244585e-06 -7.3608085e-06 1.4325005e-05 -1.5828227e-05 -2.27143e-06 -3.6147676e-06
2.4899691e-05 1.1649883e-05 5.8371747e-06 -2.7025158e-06 8.020486e-06 -7.992622e-06 -1.1264788e-06 2.622623e-05
-1.4085866e-05 -5.2319824e-06 1.4672351e-05 -6.9137204e-06 3.9864935e-05 3.7517036e-06 1.2366801e-05 8.422021e-06
-6.270661e-06 -4.6476084e-06 -3.1280033e-05 -4.6732225e-06 -2.394497e-05 -1.02183085e-05 1.4935113e-05 -1.4872523e-05
-1.0049108e-05 -2.9323044e-05 1.4960101e-05 8.352435e-06 -3.2556252e-06 8.8497376e-07 7.65392e-06 -1.3397239e-05
7.378148e-06 -3.0592428e-06 -3.7616317e-06 -2.3636541e-05 1.233543e-05 -2.2383949e-05 2.8426755e-05 -3.543035e-06
3.4311408e-05 1.2631136e-05 -2.6292279e-05 -2.599043e-05 -7.791461e-06 1.935666e-05 7.855639e-06 1.5548272e-05
-8.667387e-06 -8.83381e-06 2.479079e-05 -9.660971e-07 8.581616e-06 -3.899799e-05 1.6855452e-06 3.279741e-05
1.4107108e-05 -6.2851036e-06 2.097381e-05 1.2437917e-05 1.6173217e-05 1.4185215e-05 -3.5592697e-05 6.608925e-06
7.720824e-06 -1.2535284e-05 -1.24859625e-05 -3.6585022e-06 2.5358602e-05 -7.15557e-06 -1.3305707e-05 1.7620981e-05
2.7543982e-07 -1.6663773e-06 3.064346e-06 -4.41658e-06 1.2204792e-05 1.600414e-06 2.241605e-05 1.8703555e-05
-1.1644695e-05 -1.6980986e-05 4.8049726e-05 -2.2542095e-05 3.7610282e-06 -1.1337264e-05 -2.0016185e-05 -1.2110263e-05
-5.2199716e-06 -4.1646115e-05 7.1921863e-06 -2.8787375e-05 1.8872491e-06 -3.7028556e-05 4.1692224e-06 -2.8250457e-05
-1.7014738e-05 1.2251163e-06 -1.5249627e-05 -2.8419603e-05 -2.7391652e-05 1.8789783e-06 3.5563382e-05 -1.2608118e-06
8.171372e-06 -2.4372419e-05 1.029861e-05 4.8418506e-06 -1.6237027e-05 -3.3242322e-05 -5.592533e-05 -2.247964e-05
-1.119842e-05 2.4950607e-06 1.3153185e-05 -5.4971556e-06 6.498393e-06 4.6237096e-06 -2.3242652e-05 -9.469252e-06
-9.675202e-06 2.085978e-05 2.935115e-06 -1.9862448e-05 1.8747298e-05 -2.8314815e-05 4.8995257e-06 -8.193816e-06
3.515146e-05 2.3136221e-05 1.7371925e-06 6.2885597e-06 -1.5852289e-06 1.6422446e-06 -1.9064482e-05 1.6250222e-05
1.3910309e-05 3.2830234e-05 1.0258345e-05 5.6205326e-06 -1.6847338e-06 -1.1953842e-05 2.1880003e-05 4.767531e-06
6.630379e-06 7.2744533e-06 -1.129875e-06 -5.094338e-06 -1.3771786e-05 1.0988581e-05 2.023979e-05 -2.2622326e-05
8.1299976e-07 2.1382724e-05 -2.4497316e-05 8.112107e-06 1.9688492e-05 4.2975303e-06 2.197257e-05 -7.0240395e-07
-1.8519586e-05 1.0656391e-07 2.81911e-06 -2.222315e-05 -1.09227e-05 8.797884e-06 -7.5685243e-06 1.533012e-05
1.7572323e-06 -6.326928e-06 -1.7035836e-05 1.0203334e-05 1.0341619e-05 -2.7764474e-07 -5.0367676e-06 -4.6899104e-06

encoder.layer4.0.bias f4 [64]
00000000: 05b0 3236 473f bab6 7ce7 a3b7 6366 11b7
00000010: 2d43 403d 2367 2bb6 1a6d 5236 e39b 1fb7
00000020: b86c 12be a9b2 0835 9fc7 df36 93e3 843d
00000030: 0546 2136 5d8e 5f37 27f7 2a37 9a72 38b7
00000040: 7de1 66b7 22c9 dbb6 2def 1037 b2f2 1f37
00000050: afc0 86b7 4c9d eab6 c669 1c35 6958 d1bd
00000060: 495f 42b6 4fcc 25b7 6be2 f536 090a be36
00000070: 43be b6b6 1cdc 65b6 94df 6836 f9c4 1b3b
00000080: d715 663a f090 2ab7 a8b6 e036 dfaf 823c
00000090: 7675 aab4 9316 0ab7 5347 07b7 fc15 48b7
000000a0: a4dd 64bc a5a9 9d3c 6e9e 6d37 0a85 27b7
000000b0: 8ca2 ba35 30c3 38b6 f607 c5b5 a5f1 c3b6
000000c0: cc3c 33be 1ea9 50be 6217 3337 2a9b 23be
000000d0: a1c1 0835 c4cc c63d 2bbb ce3d 748a 3d3e
000000e0: 1327 ab35 5865 52be 8a94 57b7 b42a c336
000000f0: 63d9 44b7 e732 a7b6 688a 8d36 76b0 803d
2.6626524e-06 -5.5505984e-06 -1.9538908e-05 -8.666512e-06 0.046939064 -2.554102e-06 3.1355944e-06 -9.513434e-06
-0.14299285 5.092393e-07 6.669157e-06 0.06488719 2.4031626e-06 1.3324982e-05 1.0190334e-05 -1.0993937e-05
-1.3761569e-05 -6.5501235e-06 8.638756e-06 9.533645e-06 -1.606377e-05 -6.992055e-06 5.826845e-07 -0.10221941
-2.8963716e-06 -9.882336e-06 7.3279275e-06 5.6636095e-06 -5.446172e-06 -3.425178e-06 3.4700834e-06 0.0023768528
0.0008777058 -1.01665355e-05 6.696984e-06 0.015953002 -3.1750432e-07 -8.230697e-06 -8.0632335e-06 -1.1926048e-05
-0.013968859 0.019245932 1.4163188e-05 -9.984951e-06 1.3905387e-06 -2.753175e-06 -1.4679961e-06 -5.839584e-06
-0.17503661 -0.20377013 1.0674676e-05 -0.15977159 5.0945715e-07 0.09707025 0.10094293 0.18509847
1.2751865e-06 -0.20546472 -1.2849583e-05 5.816424e-06 -1.1733125e-05 -4.9829137e-06 4.21824e-06 0.06283657

encoder.layer5.0.weight f4 [128, 64, 2, 2]
00000000: 4900 2437 0601 f8b5 a327 5a37 0235 bfb6
00000010: 307d 80b5 ea91 13b8 ceb2 05b8 4591 56b6
00000020: 0a9b 32b6 9e03 4fb7 48bd 12b7 343a b836
00000030: cbd8 b537 989e ecb5 d146 2937 714d 98b7
00000040: 8e2a fb36 88a8 9735 24c6 4437 6cb8 b4b3
00000050: f920 4cb6 e4fa 71b7 410e ffb5 6539 1638
00000060: b461 ba36 e237 58b7 99bb 0c37 15ee 11b7
00000070: 307a 2737 97a1 5936 beef 46b6 414d da37
00000080: 9ca2 0837 dc0a 03b7 f966 48b7 2e7a de34
00000090: d2c8 1938 d218 1c37 fd64 b7b7 4f52 5637
000000a0: 8afa 1836 a44b 3cb5 6a04 d036 87d0 1738
000000b0: dfc2 7db6 decb 2037 a7fb 1eb6 1601 9eb6
000000c0: d2e3 e036 e428 14b8 f2db b537 ee03 23b7
000000d0: 73e5 cf37 e5d4 24b7 cb27 8eb7 8267 3bb7
000000e0: 955a a637 6c69 0537 283c ea37 27d2 a137
000000f0: 95f5 5037 43e3 0237 1700 6635 fd6f 8437
00000100: dc50 b237 ad8c 7f37 8722 4735 f682 c935
00000110: a910 4a37 c4a7 c037 3cdb 9d37 1bc7 0a36
00000120: c6db 20b7 d22e 2f36 df8e 88b6 977c 2335
00000130: e665 0337 a10c b9b7 f875 6bb7 68e0 0db8
00000140: dc4c 9837 555b 2737 9bd1 bc36 aff0 e2b6
00000150: 5755 4536 b5be fcb7 a8bb 0db7 fd02 eab6
00000160: c380 4cb7 c139 83b4 acfc 8537 5bf9 4f38
00000170: 64b1 a8b7 eda6 2fb8 13d5 d2b6 b3bd e2b7
00000180: b45c 7db5 337c 7b37 27c8 7737 0e36 9037
00000190: f9d2 a6b7 f6b3 b237 c7be 1236 4ece 14b7
000001a0: 688b d0b6 7f14 e3b6 8d80 f4b7 8c24 d2b7
000001b0: bbc2 92b7 157f 1f37 0c8c 6c35 9548 8537
000001c0: 5f40 87b5 41a8 9636 7635 9a37 71a7 1d37
000001d0: e828 9737 e84a bcb6 78b7 1d36 58a4 1737
000001e0: 0de0 30b7 1b5a c4b7 47e6 8737 a66f 15b7
000001f0: e647 6c36 e7c3 ef36 8428 1837 d970 ee36
00000200: f27e e936 4e83 d0b6 8fb4 9e37 2a4b 68b7
00000210: b1d9 1d35 f481 3837 2c72 5536 590f 6fb6
00000220: bca1 25b7 6c22 1138 0e8a 1db7 c947 0437
00000230: 8d3c 8836 6f70 87b6 956c 8137 3725 d635
00000240: 2311 2737 f038 87b7 ff7e 9337 cd34 30b6
00000250: 15ee 9036 812a 5c37 ddb6 8837 3182 33b7
00000260: 1341 3d35 46c9 0834 8703 fd36 62a0 27b8
00000270: 054f 4735 4348 8136 af64 e2b6 c969 c2b7
00000280: f96f d2b7 c0f2 6d36 4019 37b7 b6d3 35b6
00000290: 06c1 a437 dd89 deb7 3b0c 36b7 6e34 cb36
000002a0: eff4 0037 5269 57b6 370f 4b38 112c a7b6
000002b0: 0371 c836 970e f436 0f95 93b5 fbc6 c435
000002c0: d0b1 1e36 f791 4938 a94c 3937 0fc3 c936
000002d0: 51ea cc37 bac1 92b7 3492 1938 c347 81b7
000002e0: 9381 0738 030f cc37 b588 5a38 6684 51b6
000002f0: d77c 0d36 166a 89b4 0b94 4c37 02d3 1a37
00000300: a65d 1935 4024 73b7 3423 4235 41d1 0137
00000310: 8415 9d37 6bcd 73b7 72e1 f1b7 fb5d d536
00000320: 2a71 7636 3b8f 1737 2190 a4b7 7e18 bab7
00000330: bf15 a2b6 071d e3b5 d3e0 92b6 28f4 8f37
00000340: 70d2 0137 5480 d3b6 462c fa37 11c1 4236
00000350: 2500 05b7 7c3e d3b7 b8e3 1c37 1bf4 6b37
00000360: 9c7e 9636 b0a6 9635 8a6a 87b7 ccb2 cab6
00000370: db38 8db7 b0c7 a5b6 58af ceb6 bde0 5738
00000380: 5d86 a837 bdc6 b936 fe22 8936 3349 6d36
00000390: 1c71 58b7 31ed 90b5 cbcc 8037 b12e ec37
000003a0: dbf8 aa36 6da8 1a36 a6cd 0bb7 09f3 a3b7
000003b0: 64ab 4637 6344 1ab4 006e 1638 c6a2 d337
000003c0: 8388 83b6 f6ef 2638 0887 edb5 d3d6 81b7
000003d0: 0703 0137 4524 a4b7 93ad a6b7 54e9 5a37
000003e0: 1c1e 2337 797e a735 fc89 c2b6 9973 7ab6
000003f0: 34a4 e4b7 adef 1e35 2d38 6d37 b29a 9434
9.775228e-06 -1.8477738e-06 1.3003041e-05 -5.6984145e-06 -9.573178e-07 -3.5183424e-05 -3.1876196e-05 -3.1973043e-06
-2.6614312e-06 -1.2339004e-05 -8.746349e-06 5.490403e-06 2.1677834e-05 -1.7629527e-06 1.0089673e-05 -1.8155873e-05
7.485337e-06 1.1299426e-06 1.1728644e-05 -8.415449e-08 -3.0417561e-06 -1.4423134e-05 -1.9003129e-06 3.581624e-05
5.554606e-06 -1.28876145e-05 8.388329e-06 -8.698106e-06 9.982425e-06 3.2429577e-06 -2.9643847e-06 2.60236e-05
8.144092e-06 -7.810737e-06 -1.1944904e-05 4.143962e-07 3.666507e-05 9.3041035e-06 -2.1862326e-05 1.2774558e-05
2.2795598e-06 -7.014553e-07 6.199397e-06 3.619541e-05 -3.7813368e-06 9.58421e-06 -2.3690316e-06 -4.7088934e-06
6.702242e-06 -3.5324032e-05 2.1679301e-05 -9.716472e-06 2.4783169e-05 -9.82473e-06 -1.694625e-05 -1.1170168e-05
1.9830923e-05 7.951963e-06 2.7922986e-05 1.9290555e-05 1.2454945e-05 7.801517e-06 8.568181e-07 1.5787775e-05
2.1256907e-05 1.5231938e-05 7.418352e-07 1.5013782e-06 1.2044017e-05 2.2966306e-05 1.8817947e-05 2.0679497e-06
-9.587913e-06 2.6104285e-06 -4.0697482e-06 6.0903534e-07 7.8319335e-06 -2.20596e-05 -1.4034558e-05 -3.3826014e-05
1.8155602e-05 9.975241e-06 5.627238e-06 -6.763344e-06 2.9404962e-06 -3.0129546e-05 -8.447947e-06 -6.9740913e-06
-1.2189327e-05 -2.4442673e-07 1.5972495e-05 4.9584876e-05 -2.0109765e-05 -4.1878713e-05 -6.283293e-06 -2.7029635e-05
-9.4384745e-07 1.4989683e-05 1.4768949e-05 1.7191309e-05 -1.9886984e-05 2.1303054e-05 2.1866742e-06 -8.8695215e-06
-6.215112e-06 -6.7675132e-06 -2.9146928e-05 -2.505097e-05 -1.7495235e-05 9.506727e-06 8.8120646e-07 1.5888634e-05
-1.0077018e-06 4.4899357e-06 1.8383125e-05 9.396915e-06 1.8019651e-05 -5.611557e-06 2.3501616e-06 9.038566e-06
-1.0542583e-05 -2.340698e-05 1.6200485e-05 -8.907087e-06 3.520859e-06 7.145561e-06 9.069339e-06 7.10609e-06
6.9587195e-06 -6.214169e-06 1.8919147e-05 -1.3845778e-05 5.880384e-07 1.0997512e-05 3.180593e-06 -3.5622709e-06
-9.872423e-06 3.4602752e-05 -9.390073e-06 7.884527e-06 4.060165e-06 -4.0364025e-06 1.542856e-05 1.5955073e-06
9.957966e-06 -1.6119768e-05 1.7582903e-05 -2.6256778e-06 4.319251e-06 1.3122918e-05 1.6297616e-05 -1.0699544e-05
7.050268e-07 1.273921e-07 7.540398e-06 -3.996527e-05 7.4248265e-07 3.852912e-06 -6.747046e-06 -2.3175862e-05
-2.5086092e-05 3.545705e-06 -1.0913529e-05 -2.7094334e-06 1.9640207e-05 -2.652866e-05 -1.0850893e-05 6.055975e-06
7.686423e-06 -3.20988e-06 4.841314e-05 -4.982118e-06 5.973621e-06 7.273465e-06 -1.0995735e-06 1.4661049e-06
2.3647335e-06 4.8058075e-05 1.1044708e-05 6.0129746e-06 2.4427807e-05 -1.7494767e-05 3.6614205e-05 -1.5411415e-05
3.2307184e-05 2.4325685e-05 5.210257e-05 -3.1220493e-06 2.1083304e-06 -2.5595426e-07 1.21938165e-05 9.228244e-06
5.713322e-07 -1.4492369e-05 7.232186e-07 7.73772e-06 1.8725877e-05 -1.4531756e-05 -2.883442e-05 6.3588354e-06
3.6722727e-06 9.03365e-06 -1.9617439e-05 -2.2184333e-05 -4.830508e-06 -1.6921266e-06 -4.377312e-06 1.7160623e-05
7.7379955e-06 -6.3032294e-06 2.9822939e-05 2.9020632e-06 -7.927451e-06 -2.5182257e-05 9.3513445e-06 1.4063927e-05
4.4850876e-06 1.1224383e-06 -1.6142865e-05 -6.040884e-06 -1.6834985e-05 -4.94063e-06 -6.159691e-06 5.14693e-05
2.0089728e-05 5.536566e-06 4.086992e-06 3.535836e-06 -1.2900939e-05 -1.0797868e-06 1.5354153e-05 2.8155135e-05
5.0953654e-06 2.3045825e-06 -8.332927e-06 -1.9544286e-05 1.1841625e-05 -1.4367247e-07 3.5865232e-05 2.5228957e-05
-3.9199963e-06 3.9800965e-05 -1.7697175e-06 -1.5478034e-05 7.689704e-06 -1.9567213e-05 -1.9869569e-05 1.30481385e-05
9.7225675e-06 1.2479278e-06 -5.797714e-06 -3.732019e-06 -2.7256181e-05 5.920836e-07 1.413938e-05 2.7679704e-07

encoder.layer5.0.bias f4 [128]
00000000: 4c53 3fb4 d657 38b7 504d 463c 05a6 b636
00000010: 71c5 d334 95e4 9536 1bac eab5 e8ae 1d37
00000020: a571 e63d cce2 b836 b707 7736 11b6 5e37
00000030: 3c05 b6b6 7492 cf3c 168a 11b7 b676 9037
00000040: 4d46 9338 7ca7 d035 e2bb 48bc d5e8 a13d
00000050: 1faf de36 ef5f 20b6 abe9 7e35 d3bb 82b6
00000060: 07f0 8bb7 aaa1 9236 7398 1b3e 93ae 6eb4
00000070: edc1 1c37 5bc7 5135 26b2 06b5 4d69 92b7
00000080: 94ba 64bc 700e 7db7 4354 da38 df6c 6537
00000090: 1c59 8cb7 2337 3437 69d9 fa36 826d 2b36
000000a0: 2d07 e7b6 b70e 9e36 fb9e 2cb6 4878 82b5
000000b0: eed7 cf33 cb6f dbb6 53f7 05be 6dd7 edb7
000000c0: 2bdb 9fb6 db40 e4b6 19a5 9db6 b412 9fb5
000000d0: e4d9 aa37 2905 6737 c10e e6b6 8bcf b1b6
000000e0: b675 1137 5142 5ab4 ed66 3637 fd24 c736
000000f0: 59f3 43b7 b424 5336 96e0 aab6 2ec6 9536
00000100: fbc7 2abc a1a1 a33d 120b 3c37 6684 7536
00000110: ac0d e536 8262 2c39 2ae8 7636 9613 ac36
00000120: 5997 1d35 c19a c1b6 2783 bb36 b97b 9ebb
00000130: c3a7 d1b7 df14 b33c 4877 cd36 eff7 b836
00000140: 4cbb b8b6 3142 0236 e480 1fb7 92ca e8b5
00000150: 374d ff36 2d7a 2fb7 c3d1 45bc 152c 1b38
00000160: 045e 0cb8 0820 f5b6 61e8 a336 696a f7b6
00000170: 3710 03b7 ca3a 5836 ed26 d5b5 676a 9336
00000180: 311d 86b7 514a 8335 c2c7 4636 85bf 1636
00000190: afe8 bdb5 1c50 33b6 36aa 2836 a45d 463a
000001a0: b4aa 7dbd 6491 d0b6 0ab7 8d36 cbb9 0eb6
000001b0: c04a 8036 4b58 9935 d86a c236 c225 4f36
000001c0: d3ce a3b6 f7ac 62b7 52fe 14b6 b14d 6e37
000001d0: a058 8bb4 bcd0 a036 426b 74b7 f4ec d3b6
000001e0: eec0 693d 0495 d635 8414 8437 7abf b43d
000001f0: e55d 9235 e0b0 d5b5 933b c336 1fb7 90b6
-1.7818564e-07 -1.09877055e-05 0.012103394 5.44335e-06 3.944547e-07 4.4671565e-06 -1.7484448e-06 9.398653e-06
0.11252145 5.51003e-06 3.6810359e-06 1.3274622e-05 -5.424632e-06 0.025338389 -8.674824e-06 1.7221417e-05
7.022601e-05 1.5545952e-06 -0.012251826 0.07905737 6.6365023e-06 -2.3897699e-06 9.4962405e-07 -3.8961675e-06
-1.6681863e-05 4.3699592e-06 0.15194874 -2.2228987e-07 9.343476e-06 7.814867e-07 -5.017813e-07 -1.745359e-05
-0.013960499 -1.5083337e-05 0.00010410745 1.3674812e-05 -1.6730795e-05 1.0741674e-05 7.4758905e-06 2.5544728e-06
-6.885172e-06 4.71048e-06 -2.5722536e-06 -9.720761e-07 9.678466e-08 -6.539723e-06 -0.13082628 -2.8352917e-05
-4.7640838e-06 -6.8024797e-06 -4.6981845e-06 -1.1851866e-06 2.0367042e-05 1.3769874e-05 -6.8562517e-06 -5.2991722e-06
8.67008e-06 -2.0326958e-07 1.087201e-05 5.934968e-06 -1.16795645e-05 3.1462814e-06 -5.09254e-06 4.463617e-06
-0.010423656 0.07989813 1.1208251e-05 3.658491e-06 6.8263234e-06 0.00016439895 3.6791994e-06 5.1282796e-06
5.87073e-07 -5.769864e-06 5.5883024e-06 -0.0048365262 -2.4992862e-05 0.021860538 6.1233623e-06 5.5124906e-06
-5.5054315e-06 1.9410038e-06 -9.507148e-06 -1.7344303e-06 7.608581e-06 -1.0459259e-05 -0.012073937 3.6995934e-05
-3.346616e-05 -7.305298e-06 4.884831e-06 -7.3735614e-06 -7.811984e-06 3.2220728e-06 -1.5881066e-06 4.3933283e-06
-1.5987638e-05 9.78189e-07 2.9620574e-06 2.246322e-06 -1.4149317e-06 -2.6719708e-06 2.5133027e-06 0.0007567054
-0.061930373 -6.2158088e-06 4.223436e-06 -2.1267795e-06 3.8233993e-06 1.1425085e-06 5.794089e-06 3.0867382e-06
-4.881856e-06 -1.3510921e-05 -2.2201752e-06 1.4203994e-05 -2.595525e-07 4.7926715e-06 -1.4568506e-05 -6.315875e-06
0.057068758 1.5987612e-06 1.574518e-05 0.08825584 1.0905175e-06 -1.5921214e-06 5.818388e-06 -4.3128525e-06

encoder.fc.0.weight f4 [2, 1152]
00000000: 5609 8db5 8fcc eb37 c958 e137 5ff8 a136
00000010: e966 3937 f6ba e2b5 817a 7eb7 53d9 fab6
00000020: d000 a8b5 d24e a1b7 3b9d 8db6 281c 26b8
00000030: ce11 7eb7 e0de ea36 ed51 82b6 f27f de37
00000040: fe2d 11b7 cee5 ceb7 3b09 63bd 0d2f 0e3e
00000050: 1824 5f38 f037 b337 21d5 87bd 2d86 1437
00000060: 61f8 46b7 fd1a cab7 dc6c 793c c237 22b8
00000070: b530 7237 e14b 5336 49b0 10b6 eeb1 21b7
00000080: b3ef 0bb7 c9e4 be36 55e2 9436 5488 15b8
00000090: ffe5 9336 bfc9 c6b6 f101 beb5 30e9 88b5
000000a0: 66f6 43b5 95bc 4737 7966 ac36 20d7 2c37
000000b0: edab afb7 1ff8 c8b6 06d9 e0b6 0a5a ebb7
000000c0: 18ef 2fb7 1739 c935 a707 63b7 c849 c0b6
000000d0: bf13 8737 2e54 6eb4 7444 2fb7 36ea 04b7
000000e0: 9d5e 2937 bbe0 b2b6 e3a0 89b6 9d2d c036
000000f0: 8322 49b5 97ef 8e35 8bf7 0738 1671 1c38
00000100: 8304 16b7 bea4 75b7 b1c0 33b7 5d5d 5536
00000110: 14c6 a936 bf28 d737 4b15 9d32 5d72 b635
00000120: f6e5 c2bd 2273 e83d 9381 97b7 3647 9e3b
00000130: 0c02 093d 4f08 9937 8372 303d 1221 753c
00000140: e719 e6b6 9c50 be36 3d69 d9b6 b228 b737
00000150: 55d9 bbb6 9653 8b37 b915 1038 648e eab6
00000160: 8743 3938 fcae 6c37 c58e 93b6 9656 00b7
00000170: 4d92 1c37 c148 bdb4 1866 09b7 b434 0c36
00000180: 8876 c3b6 2ae2 09b7 e995 ac36 03c5 72b8
00000190: 0d96 fcb6 523f 5d36 395d 36b8 8c1a bfb7
000001a0: ff90 6ab5 6b6f 8db6 8ee8 8bb6 f692 d1b6
000001b0: f9a6 4b37 73ad 9137 27c7 fdb6 aa07 9437
000001c0: c48b 20b7 c0be 40b5 cf91 b4b7 e045 b1b7
000001d0: 7453 08b7 a031 adbd 3247 9937 7d8c a337
000001e0: f2f0 4238 80d7 5b3e d7fe 6737 2d53 b037
000001f0: 9eab 23b8 eb94 28b8 20ab 6f37 f1ff 48b7
00000200: 2e06 0f37 1574 f937 0da9 1cb5 bea8 d737
00000210: 71f6 4ab6 1840 85b7 dd7a 2538 b546 c137
00000220: 82d2 f237 6e1d 12b7 b6ab ff35 7ac8 cfb7
00000230: 4c00 35b7 4501 36b7 4f9b d2b7 2a31 ac37
00000240: 2ac4 0cb8 535f ac37 ac2d 9f37 45f9 7c3c
00000250: 4bae 3fbc 5ab8 c337 10a8 12b8 8c8a e137
00000260: b2bc e537 64af ccb4 014b dfb7 78be 7ab8
00000270: a042 5b37 440f aa37 41a2 f736 9722 4f37
00000280: 01ba a536 2dc3 8c34 c984 2abe d7f2 1d3e
00000290: 46dd 69bd ef45 1c3e 54b6 8738 873f bcb7
000002a0: d646 9abd 80b3 a7b7 e2d5 9a37 9ec6 ddbc
000002b0: 3c5c 90bc 59a9 80b7 894e 823d eff0 b9bd
000002c0: 64bb bc38 78bd bfb7 1b27 64b7 d083 4a3b
000002d0: 9a44 e8b7 2903 85b5 8b5e 53b7 c3ce c03c
000002e0: 47ca 353c addb 2c37 335f d937 36a6 e237
000002f0: 83f8 d5b7 f36e de37 6230 6337 4bed 8eb7
00000300: 4e40 7437 d75e b037 b6e3 1ab8 7020 5db8
00000310: dacc 5436 fcae a1b6 a1c2 2637 faef a837
00000320: 1cf6 9836 cc2e 8037 9b79 9db4 a931 2e38
00000330: d332 c736 5876 88b7 2734 a5b7 74e5 53b6
00000340: 992c e235 d12a 2eb7 ae8a c6b7 09d0 d5b6
00000350: e406 cab6 210d f937 e7fd a9b7 2863 9cb7
00000360: 6c38 09b6 573c 0236 6dca f9b6 421b 8936
00000370: 5589 84b5 7734 aa36 7e0d c6b7 2dbb 0fb7
00000380: f641 1bb7 c549 1bbe eb56 2938 0875 a936
00000390: 69fe 3e3e 52c3 c637 4ff0 f4b6 894b 19be
000003a0: 1eea 44b8 537c 0237 66c4 37be 169d 2e3d
000003b0: f795 6e3d 7f04 68bd fcc7 17be 78dc 2939
000003c0: 6dbc 163d bb0c c037 c85e 4138 5ae2 05b8
000003d0: 009d 9137 5383 54b7 92b4 b135 42ec bdb6
000003e0: 4129 3737 94d9 cbb5 fa98 8b37 5787 19b7
000003f0: 5634 2cb6 d20f 12b7 70f3 b637 798d b837
-1.0508036e-06 2.8109438e-05 2.6863434e-05 4.827088e-06 1.105082e-05 -1.6892725e-06 -1.5168102e-05 -7.4758805e-06
-1.2517212e-06 -1.92294e-05 -4.2204315e-06 -3.9603707e-05 -1.5143725e-05 6.9996895e-06 -3.8838393e-06 2.6524041e-05
-8.653382e-06 -2.4664125e-05 -0.055428725 0.13885136 5.3200958e-05 2.136451e-05 -0.06632448 8.852728e-06
-1.185955e-05 -2.4092844e-05 0.015223708 -3.867574e-05 1.44356645e-05 3.1485617e-06 -2.1560284e-06 -9.637775e-06
-8.340855e-06 5.6890754e-06 4.4370922e-06 -3.5651334e-05 4.4077165e-06 -5.924346e-06 -1.4156668e-06 -1.0200656e-06
-7.300172e-07 1.1905232e-05 5.137929e-06 1.0302087e-05 -2.0941685e-05 -5.9893496e-06 -6.700985e-06 -2.805611e-05
-1.0486481e-05 1.4992282e-06 -1.3532036e-05 -5.730635e-06 1.6102449e-05 -2.2196102e-07 -1.0446751e-05 -7.922345e-06
1.0095214e-05 -5.3309755e-06 -4.101648e-06 5.727356e-06 -7.4928556e-07 1.0649554e-06 3.241705e-05 3.7298618e-05
-8.941747e-06 -1.4641495e-05 -1.0714096e-05 3.1793818e-06 5.059652e-06 2.5648971e-05 1.8286888e-08 1.3593341e-06
-0.09516518 0.11350085 -1.806094e-05 0.0048302663 0.033449218 1.824289e-05 0.043077957 0.014961498
-6.8575496e-06 5.6718254e-06 -6.4793553e-06 2.183425e-05 -5.598335e-06 1.6609014e-05 3.4352506e-05 -6.99032e-06
4.4170327e-05 1.4107438e-05 -4.397562e-06 -7.649554e-06 9.332388e-06 -3.525693e-07 -8.189607e-06 2.0892303e-06
-5.8252517e-06 -8.218494e-06 5.1434513e-06 -5.7880778e-05 -7.5276535e-06 3.2968424e-06 -4.3479e-05 -2.2781336e-05
-8.738279e-07 -4.215098e-06 -4.1695957e-06 -6.245794e-06 1.2138619e-05 1.7366116e-05 -7.563172e-06 1.7646544e-05
-9.569285e-06 -7.180315e-07 -2.152557e-05 -2.1132582e-05 -8.125662e-06 -0.08456731 1.8272174e-05 1.9496534e-05
4.6477602e-05 0.21468925 1.38280075e-05 2.1019567e-05 -3.902206e-05 -4.0193012e-05 1.4285353e-05 -1.198052e-05
8.524903e-06 2.9737168e-05 -5.836053e-07 2.5708574e-05 -3.0243793e-06 -1.5884681e-05 3.945349e-05 2.3040318e-05
2.8946673e-05 -8.70913e-06 1.9048955e-06 -2.4769677e-05 -1.078851e-05 -1.0848341e-05 -2.5106272e-05 2.0526892e-05
-3.3561293e-05 2.0548387e-05 1.8975545e-05 0.01544029 -0.0116992695 2.3331657e-05 -3.4965633e-05 2.6886606e-05
2.7386795e-05 -3.8125575e-07 -2.6618598e-05 -5.9782033e-05 1.306893e-05 2.0272688e-05 7.3800625e-06 1.2346215e-05
4.939037e-06 2.621904e-07 -0.16652216 0.15424667 -0.05709579 0.15261053 6.471263e-05 -2.2440929e-05
-0.07533042 -1.9991538e-05 1.8457828e-05 -0.027072247 -0.017622106 -1.5337648e-05 0.06362636 -0.090791576
8.999443e-05 -2.2857203e-05 -1.3598964e-05 0.003090132 -2.76885e-05 -9.910192e-07 -1.2598593e-05 0.023536092
0.01109559 1.0303146e-05 2.5912746e-05 2.7018697e-05 -2.5507301e-05 2.6516127e-05 1.3541519e-05 -1.7038217e-05
1.4558505e-05 2.1024998e-05 -3.6928534e-05 -5.2720716e-05 3.17097e-06 -4.8185448e-06 9.939687e-06 2.0138908e-05
4.558604e-06 1.528058e-05 -2.9332008e-07 4.1531082e-05 5.936579e-06 -1.6267571e-05 -1.9693818e-05 -3.157501e-06
1.6851292e-06 -1.0381177e-05 -2.3668017e-05 -6.372113e-06 -6.0208713e-06 2.9689227e-05 -2.0264602e-05 -1.8642822e-05
-2.0447433e-06 1.9406632e-06 -7.4443437e-06 4.0860914e-06 -9.874735e-07 5.0725025e-06 -2.3609722e-05 -8.5670445e-06
-9.254078e-06 -0.1516486 4.037369e-05 5.0502167e-06 0.18651737 2.3694392e-05 -7.2997423e-06 -0.1497022
-4.694808e-05 7.77755e-06 -0.17946014 0.042630278 0.058248486 -0.056644913 -0.14822382 0.00016199227
0.03680079 2.2894112e-05 4.6103058e-05 -3.1920477e-05 1.7358456e-05 -1.2666761e-05 1.324008e-06 -5.660143e-06
1.0917255e-05 -1.5188002e-06 1.6641327e-05 -9.151022e-06 -2.566046e-06 -8.705962e-06 2.180945e-05 2.2000388e-05

encoder.fc.0.bias f4 [2]
00000000: a0cd 533d 38b4 dabd
0.05170977 -0.10678905
