tutorials/CFD/00burgers/Autoencoders/ConvolutionalAe/modelDEIM_4.ckpt (torch, 440147 bytes, 4 tensors)

layer.0.weight f4 [100, 4]
000000 93 bf 20 b8 22 66 2b b9 69 de 93 39 25 d9 51 b8
       -3.832539e-05 -0.00016345878 0.00028203733 -5.0031715e-05
000010 0b c2 9f b3 6c e7 c5 b3 52 35 ae 33 58 7f c4 b3
       -7.439311e-08 -9.215623e-08 8.112205e-08 -9.150125e-08
000020 54 c4 4b b7 03 7a 85 b7 4e e9 9d 38 2d ab 6a 38
       -1.2145454e-05 -1.5911652e-05 7.5298e-05 5.5949367e-05
000030 ab e7 6c 32 6d f3 2c b3 08 3e 5c b1 c6 af bb 32
       1.3789683e-08 -4.0268265e-08 -3.2049474e-09 2.1849598e-08
000040 8e 8c 46 bd 56 cd fe 3d 09 f9 77 3e 4b ec 5f bd
       -0.048473887 0.124415085 0.24216093 -0.054668706
000050 d1 03 bb ba 41 5d 3b bb 4b bd bf 3a 2b 30 c5 ba
       -0.0014268105 -0.002858952 0.0014628557 -0.0015044262
000060 93 b9 7a b7 b5 f0 74 b8 05 e8 9e 38 d6 4b 86 38
       -1.4944369e-05 -5.839831e-05 7.577244e-05 6.4037435e-05
000070 a1 cd e5 b6 db 3d 3d b8 e0 87 30 37 50 2b 82 36
       -6.84867e-06 -4.511872e-05 1.0522053e-05 3.879344e-06
000080 8e 70 d7 31 b2 4e 87 b3 73 b5 c1 b2 0b 7d 78 32
       6.2701195e-09 -6.300742e-08 -2.255067e-08 1.4463931e-08
000090 1a 9f 2a bc 34 c3 52 3e 30 2c 30 3e 35 0b f7 bc
       -0.010413909 0.20582277 0.17204356 -0.030156711
0000a0 58 ee 20 b5 89 93 75 b6 e0 82 9c 35 e9 33 0c 35
       -5.995148e-07 -3.6593722e-06 1.1660995e-06 5.2229603e-07
0000b0 9e 4d 1b b6 69 3e 86 b6 20 fd 9b 36 50 10 0d 36
       -2.314198e-06 -4.0007767e-06 4.6488276e-06 2.1020132e-06
0000c0 61 4a 8e 33 7d a5 92 b4 e3 36 83 b2 c7 8d 0d 34
       6.62592e-08 -2.7315028e-07 -1.5275367e-08 1.3183227e-07
0000d0 38 3e 99 33 ed 61 0f 34 b2 72 0d 34 13 2d 37 b4
       7.135935e-08 1.3353538e-07 1.3173374e-07 -1.7059601e-07
0000e0 74 e0 99 34 d2 71 17 b4 b0 f5 8e 34 31 26 a9 b3
       2.8661782e-07 -1.4104378e-07 2.6628322e-07 -7.876623e-08
0000f0 46 58 43 b8 b6 e1 d7 b8 59 29 0b 39 a5 e7 be 38
       -4.6573834e-05 -0.00010294041 0.00013271476 9.103053e-05
000100 78 20 09 b7 e5 cb 96 b7 60 14 74 37 0d 4a cd 36
       -8.173396e-06 -1.797634e-05 1.4548277e-05 6.1180967e-06
000110 ec 9e db af 71 ce 11 b2 1e df 78 31 d9 b8 71 31
       -3.994879e-10 -8.48705e-09 3.6215577e-09 3.517519e-09
000120 94 d2 05 b9 3f 30 ce b9 27 db 3f 3a c3 25 1d 3a
       -0.00012762315 -0.00039327328 0.0007318728 0.00059947016
000130 17 db ec b8 d1 fd 05 b9 9f 51 e0 39 59 2f b9 39
       -0.000112941656 -0.00012778422 0.00042785422 0.00035321226
000140 b2 0e 00 3e 1e 6f 2b 3e e1 75 80 be 8e d9 d8 3d
       0.12505606 0.16741607 -0.25089934 0.1058837
000150 39 1e b8 39 86 84 3f b9 cc 45 09 ba d5 d4 cd 39
       0.00035117732 -0.00018264548 -0.0005236536 0.0003925922
000160 d6 cb 13 bd ec 5d 77 be 67 54 dc bd 2b 3d 59 bc
       -0.036083065 -0.24156922 -0.10758286 -0.0132592125
000170 81 2c 52 3d a5 65 a7 3e 5f ab 6b 3d 3f 99 e1 3c
       0.051311973 0.32694736 0.05753648 0.027538894
000180 95 bd 82 b8 b9 d7 7e b9 1a 55 e5 39 96 9d c5 39
       -6.2341955e-05 -0.0002430369 0.0004374169 0.0003769218
000190 45 13 69 b1 72 00 51 b2 c8 6b 42 31 9f 94 5d b1
       -3.3916916e-09 -1.2165502e-08 2.8291982e-09 -3.2244214e-09
0001a0 cc ed 68 36 80 24 56 b7 b5 4a 16 36 7c 2a a0 36
       3.470911e-06 -1.2763892e-05 2.2395227e-06 4.7733174e-06
0001b0 4f e0 7f 37 fd 3a da b6 b4 5a a2 b7 c7 58 6d 37
       1.525141e-05 -6.5037734e-06 -1.9354142e-05 1.4146971e-05
0001c0 59 58 34 ba a2 60 9d bb 89 fc f8 ba 41 fc f4 39
       -0.000687962 -0.0048027793 -0.001899616 0.0004672725
0001d0 c4 c5 72 b1 bc 69 27 b3 69 27 1a 31 64 9b 83 30
       -3.5328052e-09 -3.8978882e-08 2.2432352e-09 9.575669e-10
0001e0 6e 9e 35 b9 cd ec 7c b8 17 cb 37 39 0d eb 58 b9
       -0.00017320525 -6.030202e-05 0.00017527897 -0.00020686928
0001f0 78 6d 39 37 59 09 44 b9 5c af 38 38 d9 6f 6a b7
       1.1052347e-05 -0.00018695499 4.4032335e-05 -1.3973528e-05
000200 ab de 52 2f 5b 61 07 b2 05 7c e5 b0 fe 55 44 30
       1.9178496e-10 -7.88017e-09 -1.6697191e-09 7.1426587e-10
000210 86 52 c4 b0 15 97 91 b0 c1 8e a5 31 e7 c9 51 31
       -1.4284331e-09 -1.0593079e-09 4.8183613e-09 3.052827e-09
000220 46 0c fc b6 49 75 0e b8 a7 21 4e 38 8a 58 3d 38
       -7.511614e-06 -3.396467e-05 4.914557e-05 4.514357e-05
000230 2a bc ec b5 89 d6 c1 b7 2e a0 02 38 33 a1 bf 37
       -1.7638133e-06 -2.3107294e-05 3.1143594e-05 2.2844039e-05
000240 03 e7 c6 b1 a8 3a 29 b2 7f 70 e2 31 eb f6 9f b1
       -5.7888214e-09 -9.850432e-09 6.590255e-09 -4.6555804e-09
000250 8e 9f 8c bc 1c 67 4d be 46 9b 2c be a4 21 37 3b
       -0.017165925 -0.20058864 -0.16856107 0.0027943635
000260 60 d6 2e b7 c5 a4 37 b8 fe b1 49 38 12 73 2e 38
       -1.0421121e-05 -4.3784054e-05 4.8087903e-05 4.1592e-05
000270 34 a9 f4 b5 bf 46 71 b6 d1 27 2e 36 80 71 1d b6
       -1.8228661e-06 -3.5952978e-06 2.5951197e-06 -2.3460889e-06
000280 5c bc ee 3d 70 49 b5 3d cd f7 a0 be d8 ed f8 3d
       0.116570204 0.08851898 -0.31439057 0.1215474
000290 07 8f fc b1 49 20 73 b3 96 69 6f b2 f1 8e 0e 32
       -7.3504256e-09 -5.660721e-08 -1.3935638e-08 8.297989e-09
0002a0 39 12 e7 3c b9 29 92 3e 7b f4 b7 3d 34 06 50 3b
       0.028206931 0.28547457 0.08982178 0.0031741979
0002b0 b4 49 18 b7 7e a1 68 b6 14 6d 43 37 70 cd 15 b7
       -9.077066e-06 -3.4664695e-06 1.16483025e-05 -8.928924e-06
0002c0 51 8a 9f b1 bb f1 2f b5 65 c0 45 b4 52 82 f5 33
       -4.643234e-09 -6.5544344e-07 -1.8417047e-07 1.1432407e-07
0002d0 bb d8 39 37 2a 84 b0 b6 81 22 88 b7 47 2b 50 37
       1.1077321e-05 -5.2605947e-06 -1.622853e-05 1.2407842e-05
0002e0 ae ff b7 bc 80 db 42 3e 5a 48 5a 3e fe be 1e bd
       -0.022460785 0.19029045 0.21316662 -0.038756363
0002f0 68 63 b3 32 59 e5 6f b5 e9 e6 c0 b4 e8 c8 29 34
       2.0883547e-08 -8.9368183e-07 -3.5930796e-07 1.5812441e-07
000300 43 30 58 b1 2a 3a 3a b1 83 19 84 31 df 10 ef b0
       -3.145957e-09 -2.7099625e-09 3.844606e-09 -1.7394334e-09
000310 3e ed 6b 38 dd ec 2b b8 bd 06 c2 b8 dc 9a 84 38
       5.6249315e-05 -4.0990173e-05 -9.251896e-05 6.323095e-05
000320 fd 1f 0d 39 74 89 0f ba 86 04 80 39 17 ac ef b7
       0.00013458724 -0.0005475499 0.00024417433 -2.8571156e-05
000330 19 15 4b bd 64 71 f4 bb 25 8a dc bb 4c 62 e4 bd
       -0.049580667 -0.0074598063 -0.0067303353 -0.11151561
000340 ff 85 01 b8 cf f9 f8 b8 7f cd 42 38 29 8f bf b7
       -3.088079e-05 -0.00011872092 4.6444587e-05 -2.2835638e-05
000350 92 28 1f b2 24 ed 46 b3 00 a8 32 32 cf 12 c6 31
       -9.264243e-09 -4.6316146e-08 1.0399162e-08 5.7646967e-09
000360 17 ef 3a 3a fa 35 ed b9 df 3b b0 ba 9a 8a 52 3a
       0.0007130964 -0.00045244378 -0.0013445577 0.00080315175
000370 4d b7 15 b7 5d 90 21 b7 0c 1a 6c 37 22 cb 00 36
       -8.92377e-06 -9.62996e-06 1.4072761e-05 1.9191725e-06
000380 c7 bb 07 3a e2 90 eb ba 12 0e be ba 7e bf 8e 3a
       0.00051778223 -0.0017972256 -0.0014500043 0.0010890809
000390 26 6f 8c 3d c1 c3 c8 3e 03 26 89 bd d3 ca 92 3c
       0.068571374 0.39211848 -0.06696703 0.01791898
0003a0 aa 38 2b 3d 44 8b b8 3c 0e 04 7c 3d 06 4d fe 3d
       0.041802086 0.022527345 0.061527304 0.12417035
0003b0 f0 5b 3d b8 67 09 2d b9 44 96 76 39 4f d2 45 39
       -4.5146735e-05 -0.00016502068 0.00023516366 0.0001886573
0003c0 ed e1 cd 32 6d f1 93 b3 bb 3b 37 b3 ea 90 34 33
       2.396788e-08 -6.889136e-08 -4.2662332e-08 4.2041314e-08
0003d0 02 fc ab 3d 42 a3 74 bd ac 65 c3 be 9c bd e2 3d
       0.08397676 -0.059726007 -0.38163507 0.11071321
0003e0 02 6c 5d bd 83 8b 14 bd 4e bb 16 3e 7f c6 19 3d
       -0.054058082 -0.03626586 0.14719889 0.037542816
0003f0 78 f8 75 b6 80 2d 2f b6 f1 36 90 36 38 ee b4 b6
       -3.6652473e-06 -2.6103517e-06 4.2979304e-06 -5.3921503e-06

layer.0.bias f4 [100]
000000 aa c4 3a 39 e7 75 cb 31 16 94 5c b7 11 1f 14 b3
       0.00017811605 5.9214815e-09 -1.3147501e-05 -3.448719e-08
000010 cb 77 d1 3c 80 b0 ec b9 d5 c0 49 b7 f7 af 99 b7
       0.025569817 -0.0004514493 -1.2025431e-05 -1.8320961e-05
000020 a9 b0 5f 2f 75 eb fc 3c 50 48 b1 b5 26 d5 98 b4
       2.0344494e-10 0.030873993 -1.3208573e-06 -2.8467292e-07
000030 23 b9 43 33 0a 5c 9c 33 c7 8c 84 b4 16 92 5e b7
       4.5570356e-08 7.281058e-08 -2.4689345e-07 -1.3266244e-05
000040 57 25 a0 b6 80 32 14 b1 ab a9 31 b8 e0 55 4b b8
       -4.7727185e-06 -2.156554e-09 -4.2358104e-05 -4.847895e-05
000050 4d 5a e7 3a 45 87 37 39 e0 d2 47 bc f3 bd 34 3d
       0.0017650813 0.00017502632 -0.012196273 0.044126462
000060 2a 47 08 b8 f2 be 9d b1 64 35 00 b7 fe 17 ca 36
       -3.2491203e-05 -4.5910094e-09 -7.6418255e-06 6.022862e-06
000070 80 29 73 ba ba fc b2 b2 d4 3e 70 b7 ff f3 e1 38
       -0.00092758983 -2.0836854e-08 -1.4319743e-05 0.00010774284
000080 22 c3 92 af 26 e3 05 2f 2c 07 02 b7 63 fe 24 b7
       -2.6695895e-10 1.2176979e-10 -7.750274e-06 -9.834391e-06
000090 f3 01 67 b1 44 16 1f bc 7d 5e 0f b7 58 0a 8d b4
       -3.3616032e-09 -0.009709898 -8.545464e-06 -2.6270823e-07
0000a0 e2 d1 19 bc 70 fc 2d b2 89 ae 21 3d 09 f2 4e b6
       -0.009388419 -1.0127323e-08 0.03947309 -3.0837275e-06
0000b0 e5 7c c1 b2 f6 f9 d3 36 0b d5 f3 3c ff 76 32 b3
       -2.2524953e-08 6.3173893e-06 0.029764673 -4.155208e-08
0000c0 2f ed e5 2e 7e da 16 38 17 47 9e 38 97 8d 18 bb
       1.04558466e-10 3.5966274e-05 7.5472686e-05 -0.0023277753
0000d0 8d ba 36 b8 02 33 46 b2 2a 0f d1 39 88 63 85 36
       -4.356592e-05 -1.1536715e-08 0.00039874885 3.975296e-06
0000e0 9a fd 69 39 ba f3 7b 3d b9 17 98 3c 04 47 56 b8
       0.00022315086 0.061511733 0.018566 -5.1087714e-05
0000f0 79 77 d1 b1 82 a8 9a bc d0 19 41 3c 2b a1 eb b5
       -6.096283e-09 -0.018879179 0.011785939 -1.755577e-06
000100 81 c4 38 b6 f3 d4 24 bc 8f 13 b7 b8 3c 27 e1 3c
       -2.7532517e-06 -0.010060537 -8.729763e-05 0.027484529
000110 e1 5e a0 b6 5d 6e 4f b6 5b 4e b5 b3 aa 52 d7 b3
       -4.779417e-06 -3.0909644e-06 -8.442722e-08 -1.0026754e-07
000120 9b ef 5e 39 06 46 e2 b8 d1 95 93 b2 9f ed 50 3c
       0.0002126083 -0.00010789563 -1.7181181e-08 0.012751966
000130 17 d5 a5 b5 e9 4f 17 b7 ed 24 4f 38 6b 3c 9d 3b
       -1.2355475e-06 -9.018907e-06 4.9387036e-05 0.004798462
000140 e7 74 c2 b6 4c 99 18 b7 58 16 2b 32 7a 0a 03 3c
       -5.7952598e-06 -9.095598e-06 9.95859e-09 0.007998103
000150 9e 70 ac b6 ef be 1e b8 62 49 da b9 37 be 63 b9
       -5.13911e-06 -3.7847956e-05 -0.00041634875 -0.00021719268
000160 8e f6 bd 35 c9 73 cd b4 07 b9 8e 3c b7 99 4a b7
       1.4153354e-06 -3.826847e-07 0.017422212 -1.2075928e-05
000170 e9 9e 38 3d c5 cd 5b 33 87 7f d3 b4 65 41 db 3c
       0.045073424 5.1177057e-08 -3.93946e-07 0.026764581
000180 f9 72 c3 b7 24 10 5d b8 b5 0d 19 35 69 38 5c b9
       -2.329935e-05 -5.2705538e-05 5.701689e-07 -0.0002100185

layer.2.weight f4 [1080, 100]
000000 35 41 48 36 4d ca eb 2f 2f ef 3c 36 b0 95 c5 b0
       2.9840278e-06 4.2889994e-10 2.8153406e-06 -1.437618e-09
000010 f1 48 65 3a f6 30 29 38 a5 87 3c 35 85 5a 4d 34
       0.0008746526 4.033834e-05 7.0232846e-07 1.9125044e-07
000020 24 6b 2d b1 da d6 25 3a 98 60 d7 33 47 b6 83 32
       -2.5235716e-09 0.0006326266 1.0029288e-07 1.5333297e-08
000030 19 23 03 b2 87 e7 fe b1 e0 9e 32 b3 d0 13 83 b4
       -7.633184e-09 -7.4186945e-09 -4.158835e-08 -2.4415067e-07
000040 58 d5 f4 33 fa 31 f8 af e1 e6 1b b5 0b 55 40 37
       1.14009424e-07 -4.5146448e-10 -5.807797e-07 1.1463892e-05
000050 58 83 74 39 1a 7e 2b b7 fa a1 8f b9 5e 4c 07 3a
       0.00023318583 -1.0221755e-05 -0.00027395767 0.0005161221
000060 5c 40 48 36 65 4e 91 ad 17 e3 62 b3 f9 5c 4c b5
       2.9839784e-06 -1.6519406e-11 -5.2826262e-08 -7.6131215e-07
000070 15 45 03 b9 e6 4c 0a 30 31 9e 96 36 75 68 8a 35
       -0.00012518869 5.0313387e-10 4.4887643e-06 1.0312202e-06
000080 b6 97 a9 af c9 58 17 ad 67 a6 1a 35 7b d7 63 b5
       -3.0848718e-10 -8.6030705e-12 5.761162e-07 -8.4877655e-07
000090 9a 8d 41 2f a0 0f ef b8 88 49 0c 35 76 c0 64 33
       1.7603555e-10 -0.000113993185 5.2261066e-07 5.326043e-08
0000a0 6c b3 ec 39 f6 ea 12 b1 de 56 12 3a 3b 15 c7 34
       0.00045147107 -2.1379356e-09 0.0005582402 3.7082086e-07
0000b0 49 1d 9a b2 dd 01 88 b5 c5 33 3e 3a 49 52 74 b2
       -1.7941277e-08 -1.0133332e-06 0.0007255639 -1.4221379e-08
0000c0 08 8c 51 2f eb 62 55 b6 4c d5 d8 b6 4c e6 ed 38
       1.9058188e-10 -3.1797051e-06 -6.4621327e-06 0.00011343937
0000d0 74 3c 96 34 df 77 a2 30 cc b5 c9 b8 ba d6 dc 30
       2.7983663e-07 1.1821121e-09 -9.618289e-05 1.6068136e-09
0000e0 35 62 6d b8 69 9c b1 3a e2 68 02 b9 35 ef 94 b5
       -5.6596666e-05 0.0013550642 -0.00012436838 -1.1096478e-06
0000f0 a3 8f 77 b1 6b 73 39 3a 42 c2 7f 3a 97 f2 d9 33
       -3.6024879e-09 0.00070743886 0.00097564247 1.0148977e-07
000100 54 28 43 35 6f 80 7a 39 36 4f ee b2 19 51 8b 3a
       7.2701846e-07 0.00023889703 -2.7742868e-08 0.0010629027
000110 80 68 f0 b3 01 92 1f 31 e1 b1 09 b3 98 7c 02 b2
       -1.1194879e-07 2.3220539e-09 -3.2059578e-08 -7.595325e-09
000120 a5 bb f3 b7 b8 82 ee 36 a7 d3 a0 2f df e5 08 3a
       -2.9055236e-05 7.1081704e-06 2.9254218e-10 0.0005222242
000130 4c 8d 8a 32 47 db 8f 35 25 1d ef 36 07 90 08 39
       1.6129569e-08 1.0718148e-06 7.126148e-06 0.00013023625
000140 ab 1f 78 b4 1d 49 04 b5 74 a9 da 2f ee bf 64 3a
       -2.310832e-07 -4.9280226e-07 3.9774373e-10 0.00087261095
000150 3d c6 88 33 67 e0 ba b5 b9 b6 4c 37 b2 ae 44 b7
       6.369053e-08 -1.392339e-06 1.2201891e-05 -1.1723185e-05
000160 78 86 2b b3 f9 63 97 33 01 e2 5c 38 b5 cf ab 34
       -3.993634e-08 7.0496704e-08 5.266257e-05 3.200236e-07
000170 57 89 40 3a 8c 1f 17 32 ae 33 fd 32 90 3f 82 3a
       0.0007344684 8.79653e-09 2.9476578e-08 0.0009937156
000180 f6 00 80 34 60 d1 0e b6 43 f9 41 b4 69 63 1a b7
       2.3842557e-07 -2.1281521e-06 -1.8065207e-07 -9.202261e-06
000190 e4 45 8f 36 66 dc dd 30 5e b7 16 b5 9c 9b 4c b0
       4.2698684e-06 1.6142507e-09 -5.614619e-07 -7.44359e-10
0001a0 86 12 66 3a 7c 27 12 38 01 d9 b7 35 ac 4d 17 b4
       0.0008776564 3.4845885e-05 1.3697719e-06 -1.4091228e-07
0001b0 9b d5 76 af 72 96 28 3a b8 e4 4b b2 d4 aa 71 32
       -2.2449458e-10 0.00064311095 -1.186816e-08 1.4066888e-08
0001c0 29 80 aa b1 8b 06 a1 b1 05 ce e2 b2 a2 ad a6 34
       -4.9622213e-09 -4.6864606e-09 -2.640355e-08 3.1046244e-07
0001d0 2b d2 62 b3 0d a6 d1 af 01 7a b6 36 92 90 55 35
       -5.2810872e-08 -3.8134865e-10 5.438226e-06 7.955906e-07
0001e0 0c 00 8b 39 bf b4 19 37 13 d3 86 b9 b8 f9 0a 3a
       0.0002651218 9.161594e-06 -0.00025715734 0.0005301493
0001f0 0c bd 20 36 e3 31 33 af 72 cc a5 33 3d 8e f2 32
       2.3951898e-06 -1.6297678e-10 7.7205996e-08 2.823719e-08
000200 57 67 8b b8 4e f0 c1 af cf 9d 8c 36 f1 6a 3c b6
       -6.647285e-05 -3.5277242e-10 4.1906965e-06 -2.807643e-06
000210 cb 39 26 af e4 08 02 ae 8d 63 81 35 56 6f 15 b5
       -1.5118144e-10 -2.9566474e-11 9.640222e-07 -5.566884e-07
000220 40 88 ec ae 82 5d c6 b8 6c 01 61 35 d2 6b 8b b2
       -1.075624e-10 -9.458793e-05 8.38211e-07 -1.623076e-08
000230 ca 48 f5 39 60 62 6b b0 f0 ad 14 3a 35 c3 4c 34
       0.00046784274 -8.56323e-10 0.00056716707 1.9069996e-07
000240 20 af 8a b1 b2 88 55 b4 ae 52 40 3a cd d9 2d 31
       -4.036238e-09 -1.98869e-07 0.0007336539 2.5298619e-09
000250 93 22 df ad 75 37 9f 35 3d 03 27 b7 b0 82 23 39
       -2.5367519e-11 1.1862563e-06 -9.95473e-06 0.00015593576
000260 82 ad 40 b5 55 c2 9f b0 76 95 83 b7 97 79 e1 b4
       -7.177806e-07 -1.1624005e-09 -1.5686015e-05 -4.1997984e-07
000270 a8 67 d1 36 26 ed b1 3a 58 4a bd b8 db ad 8a 35
       6.2407526e-06 0.0013574704 -9.02607e-05 1.03324e-06
000280 7e 23 95 b0 87 2d 3f 3a 9e e2 83 3a 87 17 10 b1
       -1.0851264e-09 0.0007292856 0.0010062044 -2.0968132e-09
000290 d6 7d 54 35 57 2c 83 39 09 6a 14 36 d5 6a 8c 3a
       7.915927e-07 0.00025019303 2.211544e-06 0.0010712991
0002a0 30 66 b7 b4 24 59 18 36 39 42 3f b2 27 c5 20 b0
       -3.4160757e-07 2.2701652e-06 -1.11327205e-08 -5.848783e-10
0002b0 e2 74 08 37 b3 b6 44 37 c5 1b 02 af 40 5e 0d 3a
       8.133446e-06 1.1725048e-05 -1.1833297e-10 0.00053927675
0002c0 88 c4 44 b2 38 d7 ca 35 05 d1 5d 35 11 8b 08 39
       -1.1453388e-08 1.511281e-06 8.263308e-07 0.00013021777
0002d0 46 6d d6 34 7e 16 0d 33 23 13 39 30 91 48 7f 3a
       3.9940113e-07 3.2849577e-08 6.7329803e-10 0.0009738291
0002e0 34 01 41 34 84 3b 8a 36 65 53 57 37 0f e6 11 38
       1.7974963e-07 4.119649e-06 1.2834415e-05 3.4784953e-05
0002f0 61 b7 92 b3 7d d5 80 33 2f b7 a5 38 d2 d6 cb 34
       -6.832011e-08 5.999298e-08 7.901934e-05 3.7968e-07
000300 f3 ad 42 3a 5a 87 41 31 59 71 d8 31 38 25 83 3a
       0.0007426433 2.8162135e-09 6.2993135e-09 0.0010005599
000310 c4 ef fd 34 35 c0 8e 36 1b f8 8b 33 5b 8e 2f 38
       4.7299375e-07 4.2543056e-06 6.517822e-08 4.185583e-05
000320 6f 11 68 b5 f7 b7 80 2f 15 8d 3f 35 ba 12 23 af
       -8.6452104e-07 2.341378e-10 7.1358346e-07 -1.4831417e-10
000330 10 46 63 3a 06 11 b8 37 ac dc ff b4 a3 81 b5 34
       0.0008669803 2.1942436e-05 -4.765801e-07 3.38082e-07
000340 85 5f 5c b0 52 ab 2b 3a 4a 32 3f 33 45 31 da 32
       -8.0171275e-10 0.0006548661 4.451639e-08 2.5400945e-08
000350 f9 d3 fa b0 bd 7e 4f b1 79 f3 68 33 30 78 13 34
       -1.825014e-09 -3.0194507e-09 5.4238146e-08 1.3734166e-07
000360 c3 7f c6 33 ea 3c 31 b0 bd d2 b0 36 fe ac 94 36
       9.243333e-08 -6.447879e-10 5.269742e-06 4.4308827e-06
000370 c5 db 7a 39 d9 34 32 37 bb a9 9a b9 3d 7e 11 3a
       0.00023923728 1.0621931e-05 -0.00029499628 0.0005550122
000380 57 f4 c4 36 9f 49 93 ad c9 04 d2 b3 5f 31 99 b4
       5.8697e-06 -1.674466e-11 -9.7797574e-08 -2.8534393e-07
000390 d6 44 1c b9 c2 d4 62 2f 8f 8d 50 36 2b 0c bd 36
       -0.00014902963 2.0630167e-10 3.1076813e-06 5.6340555e-06
0003a0 3d 0a 7d ae a8 10 8a ae 33 32 00 35 d3 5e 52 b4
       -5.7534633e-11 -6.278472e-11 4.7756765e-07 -1.9592271e-07
0003b0 35 a5 49 2f c7 23 02 b9 d5 38 13 35 d2 5a 35 33
       1.8339537e-10 -0.00012411094 5.484447e-07 4.2224947e-08
0003c0 53 11 01 3a 70 4c b8 b0 c8 14 17 3a 25 37 42 34
       0.0004923541 -1.3409487e-09 0.00057632895 1.808772e-07
0003d0 38 0b 0d b2 22 1a cc b4 7b ca 44 3a 27 6a 5d 32
       -8.209831e-09 -3.8016975e-07 0.00075069786 1.2888029e-08
0003e0 1c a7 16 2c b2 79 dc 35 55 8a 52 b6 21 3e e6 38
       2.1409046e-12 1.6426695e-06 -3.1372958e-06 0.00010978827
0003f0 cd 3b 64 35 7c 09 19 30 10 6a 3d b8 8f 4b 89 b4
       8.502364e-07 5.5674554e-10 -4.515989e-05 -2.5573215e-07

layer.2.bias f4 [1080]
000000 54 15 ef 39 1f 6b fd 39 ce 36 01 3a 9d 00 f9 39
       0.00045601523 0.00048335732 0.0004929126 0.00047493438
000010 88 78 01 3a c2 72 cd 3a bd 6e ce 3a 31 fe cd 3a
       0.000493892 0.0015674459 0.0015749555 0.0015716014
000020 3e 0a 2a 3b d6 37 5c 39 90 8f 2d 3a 01 00 c1 39
       0.0025946046 0.00021001635 0.0006620819 0.00036811832
000030 47 bd 48 b4 01 52 ee b8 32 0e b3 3b c3 a7 8d 3a
       -1.869531e-07 -0.00011363999 0.0054643387 0.0010807443
000040 fd ca 3e 3a ea 54 f7 39 5b cc a9 38 70 3f 1a b5
       0.00072781724 0.00047174777 8.096612e-05 -5.7461784e-07
000050 2e d7 d5 b7 8e a4 b7 3b 39 17 c5 3b b6 3b d3 3b
       -2.549178e-05 0.0056043332 0.0060147312 0.006446327
000060 c3 1d 9b 3a 9c fa 56 3a b0 29 19 3a df 40 f0 38
       0.0011834431 0.0008200796 0.0005842699 0.00011456175
000070 e4 d5 a7 b1 4b b9 a8 b3 18 82 40 33 cf 9c b5 3b
       -4.8846562e-09 -7.856814e-08 4.4821803e-08 0.0055423747
000080 dc 9a c6 3b 6e 29 d7 3b a7 19 e5 3b e9 89 f3 3b
       0.006060941 0.006566218 0.0069915834 0.0074322117
000090 46 bb 71 3a 18 91 45 3a 25 27 cc 38 b9 35 84 b2
       0.00092213263 0.0007536574 9.734769e-05 -1.5391253e-08
0000a0 8e 6b 02 b7 06 ba cb 38 60 ed d2 3b 13 9f e5 3b
       -7.773646e-06 9.714444e-05 0.0064369887 0.0070074885
0000b0 34 2d f6 3b 65 1c 80 3a b1 b1 1f 39 ce 2e 3c b2
       0.007512713 0.0009774087 0.00015229617 -1.0953682e-08
0000c0 0b f7 34 b6 51 97 f4 3b 57 39 1b 3c 19 c7 8b 39
       -2.6965888e-06 0.0074643274 0.00947412 0.00026660485
0000d0 8e 27 1d 37 de 1f 1d 3c 73 25 25 3c 0e 4e 2c 3c
       9.367139e-06 0.009590117 0.010079729 0.010516657
0000e0 33 a9 bb 3a 6a f6 cc 39 69 b7 58 b8 54 df 1a 3c
       0.0014317393 0.00039093505 -5.1669227e-05 0.00945266
0000f0 15 b7 24 3c 1a 98 2d 3c f4 95 35 3c dd 71 3b 3c
       0.010053416 0.010595346 0.011083115 0.011440721
000100 9c 28 bb 3a 86 73 a6 3a 93 9c d0 3a c0 22 03 3a
       0.001427907 0.0012699224 0.0015915803 0.00050024316
000110 f0 6b db b7 85 26 55 b2 f0 a1 2b 3c 21 b9 35 3c
       -2.6157097e-05 -1.240699e-08 0.010475621 0.011091501
000120 c0 a3 3d 3c 77 65 44 3c e4 f7 49 3c 1a 2e 3f 3b
       0.011574686 0.011987082 0.012327168 0.0029171766
000130 13 da b7 3a 73 f0 b4 3a 44 c1 de 3a ed e3 1f 3a
       0.0014026783 0.001380457 0.0016994854 0.0006099332
000140 2e 7c 85 b8 a5 93 1e a9 de 59 3b 3c ed 38 44 3c
       -6.3650645e-05 -3.521111e-14 0.011435 0.011976463
000150 6e 6e 4b 3c 62 9e 51 3c 94 ef 54 3c da cf 97 3b
       0.012416465 0.012794109 0.012996573 0.004632932
000160 c7 34 3a 3b 06 47 b4 3a 05 a2 c2 3a 2b 41 ef 3a
       0.0028412805 0.0013754077 0.0014849311 0.0018253674
000170 8a 17 4f 3a d9 70 2a b8 16 7c aa b8 4e cf 08 b4
       0.0007899931 -4.0636256e-05 -8.1293445e-05 -1.2741404e-07
000180 28 d0 49 3c 4f dc 51 3c 0d ab 57 3c c9 b1 5a 3c
       0.012317695 0.012808873 0.01316334 0.013348051
000190 b2 bc 5c 3c 64 a8 d1 3b 43 d2 93 3b 9c 10 31 3b
       0.013472723 0.0063982476 0.004511149 0.0027017957
0001a0 e3 65 b6 3a dc 49 d2 3a 4a d2 f0 3a 61 ae 6f 3a
       0.0013915863 0.001604374 0.0018373218 0.0009143111
0001b0 88 1a e3 b6 d3 e7 43 b8 dd 0a 55 3c a6 19 5b 3c
       -6.768216e-06 -4.6707526e-05 0.013003078 0.013372814
0001c0 c2 a9 5e 3c eb d7 5f 3c 6f 54 5e 3c 42 4b 8b 3b
       0.013590278 0.013662319 0.013569935 0.004250915
0001d0 a0 4a 22 3b b7 9c b2 3a fa cd ed 3a 04 91 02 3b
       0.0024763718 0.0013627027 0.0018143051 0.0019922862
0001e0 62 9e 83 3a 94 10 7b 38 64 c1 92 b9 b9 1a cf 3b
       0.0010041709 5.9858503e-05 -0.00027991377 0.0063203243
0001f0 ee e2 5c 3c d6 c8 5f 3c 27 b8 60 3c 32 ca 5e 3c
       0.013481839 0.013658723 0.01371578 0.013598012
000200 e8 2d 59 3c b8 1a 17 3b 17 93 b9 3a be 5b 0a 3b
       0.013255574 0.0023056697 0.0014158216 0.0021111812
000210 dd 91 03 3b e6 b8 89 3a a8 1f a6 b7 ad c8 ae 3b
       0.0020075955 0.0010507375 -1.9803483e-05 0.005333981
000220 99 c0 cc 3b 3e 0e ec 3b 66 d6 5a 3c 08 44 5e 3c
       0.0062485454 0.0072038462 0.013356781 0.013566025
000230 92 d5 5e 3c e4 4d 5b 3c ce c3 55 3c 3b 93 4a 3c
       0.013600724 0.01338527 0.013047172 0.012364204
000240 9d fe 68 3b 97 e6 0a 3b 69 4f cb 3a e1 ee 21 3b
       0.0035552152 0.002119457 0.0015511337 0.0024709033
000250 4a 6b 04 3b c1 42 81 3a d7 ee 11 b7 de 0e 8c 3b
       0.002020555 0.0009861813 -8.698283e-06 0.0042742332
000260 98 10 aa 3b c0 36 c9 3b 1a 19 e7 3b 2a 86 02 3c
       0.0051899664 0.00614056 0.007052553 0.0079665575
000270 3d 21 1f 3c e5 f8 59 3c b4 c6 58 3c 8e 3e 55 3c
       0.0097125145 0.01330397 0.013230968 0.0130154025
000280 2b 5c 4d 3c 55 b3 41 3c e0 49 32 3c 1e b2 9c 3b
       0.012534182 0.011822541 0.010881871 0.0047819754
000290 65 8d 4b 3b 80 21 03 3b 6c 01 e3 3a 3d db 38 3b
       0.003105962 0.0020008981 0.0017319149 0.0028206848
0002a0 2e c1 e9 3a cc bf 47 3a 7f 54 a4 3b f2 0e c1 3b
       0.0017834061 0.00076198275 0.0050149555 0.005891674
0002b0 06 9a de 3b 28 ab 0c 3c 4b a8 19 3c ac 4d 26 3c
       0.0067932634 0.008585729 0.009378503 0.010150354
0002c0 05 20 4f 3c 9b c0 49 3c f2 c2 41 3c 66 2c 35 3c
       0.012641911 0.012313987 0.011826264 0.011057949
0002d0 95 80 25 3c e2 a3 0f 3c e9 97 ef 3b d3 7c 33 3b
       0.010101457 0.0087671 0.0073118103 0.0027387633
0002e0 2a 9d 02 3b 34 b0 08 3b c9 8f 57 3b d0 60 91 3a
       0.0019930103 0.0020856978 0.00328921 0.0011091474
0002f0 f2 cb a8 39 fc 45 b8 3b 6f 95 ef 3b 8a 3e 06 3c
       0.00032195408 0.005623577 0.007311515 0.008193621
000300 f6 a7 12 3c 60 69 1e 3c bc 8c 29 3c 1e 46 31 3c
       0.008951178 0.009668678 0.010348495 0.01081994
000310 7a ff 23 3c b8 da 13 3c fd 49 fd 3b 4c da cf 3b
       0.010009641 0.009024315 0.0077297674 0.0063431617
000320 d0 a7 9e 3b 46 26 1f 3b ea b6 06 3b 4c 0b 2a 3b
       0.004841782 0.0024284287 0.0020555803 0.0025946675
000330 35 b2 77 3b 5b 89 3c 3a 6a 65 44 b9 24 6f f1 b9
       0.0037795429 0.00071920984 -0.00018729796 -0.00046049908
000340 6a c0 f9 3b d9 c8 08 3c 67 47 13 3c ee 85 33 3c
       0.0076218145 0.008348667 0.008989192 0.010957224
000350 68 ec 0e 3c 9a bd fc 3b c5 de d6 3b 1f 9f aa 3b
       0.008723356 0.007713032 0.006557318 0.005206957
000360 c5 a2 80 3b bb 4f 3d 3b c7 c4 16 3b d3 d3 20 3b
       0.0039256536 0.0028886634 0.0023005472 0.002454032
000370 d2 93 50 3b 87 de 8d 3b f4 c5 33 38 2f 10 16 ba
       0.003182639 0.004329506 4.2861284e-05 -0.00057244574
000380 b7 a5 62 ba e2 9e ac ba a3 97 f7 3b ba bd 1d 3c
       -0.0008645909 -0.0013169909 0.0075559183 0.009627754
000390 33 f5 1e 3c 3f e8 1b 3c da 09 cd 3b f1 43 aa 3b
       0.009702015 0.009515821 0.006257278 0.0051960875
0003a0 ca 51 86 3b c0 85 4c 3b 93 a9 23 3b 92 77 24 3b
       0.0040991055 0.003120765 0.00249729 0.0025095684
0003b0 c5 e9 44 3b e2 a6 7d 3b fb 2d 9f 3b 05 46 2f ba
       0.0030046564 0.0038704206 0.004857776 -0.0006686154
0003c0 dc eb 91 ba 8a e8 a5 ba ac 0d e2 ba e5 82 88 3b
       -0.0011132914 -0.0012657803 -0.0017246506 0.0041659945
0003d0 01 ee c4 3b 3e 6a d6 3b 4f 4f e6 3b f4 62 04 3c
       0.0060098176 0.006543427 0.0070284973 0.008080233
0003e0 7d 89 06 3c b2 12 06 3c d2 d2 02 3c 30 8b fa 3b
       0.008211491 0.008183168 0.007984834 0.007645987
0003f0 c8 78 d6 3b f1 44 81 3b d8 99 4a 3b b9 70 2a 3b
       0.00654516 0.003944986 0.0030914452 0.002600713
