tutorials/CFD/00burgers/Autoencoders/ConvolutionalAe/modelDEIM_4.ckpt (torch, 440147 bytes, 4 tensors)

layer.0.weight f4 [100, 4]
00000000: f3fe c4b3 7f32 1ab5 7abd 06b4 544b 8fb2
00000010: 2540 4cb5 9e09 bbb4 3950 2c34 c475 2eb6
00000020: 2a83 07b5 419e 03b6 be2e 5fb4 d12d 85b4
00000030: 7045 fbb8 fa0b bdb9 2996 92b8 db68 e0b8
00000040: 0d4d 4fb5 00a0 1bb6 77a1 d3b5 8c64 25b5
00000050: 79c8 0b3c 3fac 873e 7f90 163e e459 76bc
00000060: 2ebb a6b7 2793 9db8 3cd8 a4b6 7352 20b7
00000070: b875 50ba 5957 2dba 356f 4439 7859 64ba
00000080: 9d91 eeb4 a168 83b5 7940 9834 ae82 73b5
00000090: a72b 40bc 8e46 783e 775e 4e3e 9ffe 0bbd
000000a0: 735c 3db5 a252 fb34 932c 3435 9206 c1b5
000000b0: 4a26 34b9 3518 88b9 2757 d039 06d6 4139
000000c0: 5aa4 4eb9 a2f1 a3b9 b1e3 f838 2169 c9b9
000000d0: 2c88 22b4 268c 00b3 995e 1533 04ba 06b5
000000e0: 8c5a deb4 ddb4 48b5 f00e 6335 90aa 9d34
000000f0: 0d39 2db9 9f01 28b9 5f8d c638 c762 87b9
00000100: 2842 18b3 d1f4 1ab4 2a99 9133 f023 18b2
00000110: 9131 ebba 1bac 04bb afd3 773a 8420 0abb
00000120: 19e3 3db6 e6ba 1ab6 fc4c d135 ea30 f0b6
00000130: bcf7 e73d 5207 203e 5af6 e6bd dade 053e
00000140: d495 4ab8 1286 18b9 8a39 ce37 3d9e 44b9
00000150: 0ce4 8bb4 b5c7 ddb4 178b 1d35 acf8 4034
00000160: 00b4 b8b1 311c 0bb3 37b2 b0b1 0344 2eb0
00000170: b9d5 38bd 0fdd f0bb 7ed8 74bb 0ba1 d2bd
00000180: 7cd6 c8ba ba0a 31be df0f 48be fcee b03c
00000190: 696e 0bb7 2bb8 32b8 8fd1 01b7 1325 60b6
000001a0: 086e 88bd 5a19 6bbd 9e53 d53d 27bf 89bc
000001b0: 2920 14b0 85fc fbb1 ce34 9030 393e 8db1
000001c0: a195 2032 89fb d4b1 8b8a 40b2 2292 3d32
000001d0: 1f75 16bd edb1 483d 719c 733a 7650 c3bd
000001e0: 3027 42b4 d604 68b3 de44 4633 b2ee 2bb5
000001f0: 64d5 febc dad7 27bd 73e8 d83d 98fd 743d
00000200: 93e2 ecba 8c4c f6ba e8fe 923a 5421 12bb
00000210: edb4 15bd e88d 67be 63d9 abbd 4d77 78bc
00000220: eb87 bfba 2bbd 59b9 ad29 bb39 239d 13bb
00000230: e88b 16b9 466e 82b9 7bc6 ef39 f22d 9539
00000240: 731c 54b6 91d9 8fb6 faee cb36 1883 2035
00000250: 26c3 c7b7 c704 c1b8 6784 0537 bbaf bbb8
00000260: c5e4 94b4 e20e 93b5 5fbb 13b4 88da 16b4
00000270: 9fa6 b0bc 6e08 4ebe b53b 16be 4203 48bb
00000280: 215b cf3d 15f2 493e b9ca 5ebe 7f20 373d
00000290: cda2 0ab9 2aef f1b8 bda2 d038 521f a9b9
000002a0: 654b 68b1 cc99 c3b1 ddaf e931 ce90 5831
000002b0: ad26 b3b8 4db9 00b9 bcfe 6739 1413 fb38
000002c0: 85e3 9a3d 439a ca3e b25a 8cbd 1dcd 5c3c
000002d0: c6c8 6cb9 234a b5b9 7880 2439 65db d6b9
000002e0: 5a3e 45b8 628f a4b8 2573 1037 0cb5 56b9
000002f0: d1cd 0bba 5fb4 cfba 5210 6fb9 8736 b6b9
00000300: fd1c 21b4 e526 3db4 937b 8634 f547 9833
00000310: 410d 8fb3 959a 28b4 42ea 7f33 9bd6 4eb4
00000320: b21c 6cb5 fe1f 0ab6 813b 3c35 f053 28b6
00000330: dfa2 15b3 311e dbb2 3ca5 8933 89ad 34b2
00000340: ecf6 08b7 f272 6fb7 5efd 3537 682d f7b6
00000350: f5fd d9ba 451f 8dba b552 803a 4ab8 2dbb
00000360: fea7 74b8 9610 b1b8 4895 0039 1488 8238
00000370: 76c8 d5b3 fd8a c4b4 b511 dcb1 f995 d9b3
00000380: 6ee3 42b4 dc19 2ab5 98a8 67b3 5c47 d7b3
00000390: 85f0 82b7 fe30 33b8 6b66 8e37 37bc 18b8
000003a0: f833 4ebd db61 b53d ad53 623e fde0 4fbd
000003b0: 9e3a b6b4 f8fb acb5 60bd 04b4 4382 3fb4
000003c0: 67c4 10b3 4935 6ab3 001c 6a33 f8f1 3fb3
000003d0: ad81 1935 b5cf 03b4 ec6a fdb5 f0a4 3735
000003e0: 0be6 29b8 4bd5 6fb8 7167 af37 efc0 ccb8
000003f0: dd06 9bbd 1cf5 9c3d d698 8e3e ef41 80bd
-9.173336e-08 -5.744295e-07 -1.2548654e-07 -1.6681646e-08 -7.6089265e-07 -3.4838462e-07 1.6047933e-07 -2.599657e-06
-5.048229e-07 -1.9612637e-06 -2.0785498e-07 -2.4806516e-07 -0.000119815464 -0.00036057812 -6.989792e-05 -0.00010700683
-7.722563e-07 -2.3189932e-06 -1.5767718e-06 -6.1613605e-07 0.008531683 0.264986 0.14703558 -0.01503608
-1.9875904e-05 -7.513753e-05 -4.912754e-06 -9.55594e-06 -0.0007952112 -0.0006612442 0.00018733444 -0.00087108416
-4.4436902e-07 -9.790712e-07 2.8359116e-07 -9.071472e-07 -0.0117291575 0.24245664 0.20153223 -0.034178372
-7.054252e-07 4.6812517e-07 6.712009e-07 -1.4381533e-06 -0.00017180401 -0.00025957977 0.00039737785 0.00018485644
-0.00019706917 -0.00031269813 0.00011867972 -0.00038416035 -1.5136965e-07 -2.9929787e-08 3.4777802e-08 -5.018958e-07
-4.1416604e-07 -7.4768997e-07 8.4585827e-07 2.936763e-07 -0.00016519819 -0.00016022332 9.467708e-05 -0.000258228
-3.5450427e-08 -1.4431431e-07 6.779949e-08 -8.855736e-09 -0.0017943849 -0.0020244184 0.00094538456 -0.002107651
-2.8295383e-06 -2.3056577e-06 1.5594119e-06 -7.1582517e-06 0.113265485 0.15627792 -0.112774566 0.13073292
-4.830009e-05 -0.00014545795 2.4583907e-05 -0.00018750965 -2.6056694e-07 -4.1309764e-07 5.868946e-07 1.797186e-07
-5.3755684e-09 -3.23891e-08 -5.142535e-09 -6.339748e-10 -0.045125697 -0.007350571 -0.0037360485 -0.10284623
-0.001532271 -0.17289248 -0.19537304 0.021598332 -8.3107525e-06 -4.2610027e-05 -7.737791e-06 -3.340018e-06
-0.06661612 -0.057397224 0.10416339 -0.016814781 -5.388779e-10 -7.3337696e-09 1.0492387e-09 -4.110714e-09
9.347247e-09 -6.1986083e-09 -1.1207372e-08 1.1034475e-08 -0.03673279 0.04899781 0.0009293026 -0.09536831
-1.8081914e-07 -5.4021108e-08 4.6163102e-08 -6.404981e-07 -0.031107612 -0.040977336 0.10591211 0.05981216
-0.0018072895 -0.0018791123 0.0011214884 -0.0022297697 -0.036549497 -0.22612727 -0.083910726 -0.015165162
-0.001461265 -0.00020765203 0.0003569847 -0.002252408 -0.00014357234 -0.00024877692 0.00045733512 0.00028453727
-3.1607021e-06 -4.28706e-06 6.077692e-06 5.979541e-07 -2.3813522e-05 -9.203847e-05 7.958245e-06 -8.949587e-05
-2.77336e-07 -1.0956685e-06 -1.3758607e-07 -1.404934e-07 -0.021563826 -0.20120403 -0.14671214 -0.003051952
0.10124803 0.19721253 -0.2175702 0.044708725 -0.00013221354 -0.00011536323 9.948525e-05 -0.00032257527
-3.38033e-09 -5.6927316e-09 6.801186e-09 3.1514449e-09 -8.542589e-05 -0.00012276061 0.00022124773 0.00011972166
0.07562927 0.39570817 -0.06853236 0.013476637 -0.00022581508 -0.00034578246 0.00015688117 -0.00040980722
-4.702653e-05 -7.8468365e-05 8.609878e-06 -0.00020476076 -0.0005333098 -0.0015846601 -0.00022798896 -0.0003475437
-1.500484e-07 -1.7616146e-07 2.5049357e-07 7.0911405e-08 -6.661367e-08 -1.5702456e-07 5.958487e-08 -1.9263318e-07
-8.795861e-07 -2.0582224e-06 7.012205e-07 -2.5082809e-06 -3.4839896e-08 -2.5508685e-08 6.4096156e-08 -1.0516836e-08
-8.163723e-06 -1.4272273e-05 1.0847432e-05 -7.3664596e-06 -0.0016631471 -0.0010766765 0.0009790274 -0.002650755
-5.833059e-05 -8.443107e-05 0.00012262643 6.2242296e-05 -9.955049e-08 -3.6608972e-07 -6.4048558e-09 -1.013213e-07
-1.8150396e-07 -6.3367565e-07 -5.3937214e-08 -1.0024698e-07 -1.5609208e-05 -4.2722553e-05 1.6975411e-05 -3.6414913e-05
-0.05034253 0.08856555 0.22102232 -0.050751675 -3.394279e-07 -1.2888331e-06 -1.2362352e-07 -1.783565e-07
-3.370624e-08 -5.4530833e-08 5.4507836e-08 -4.4690722e-08 5.7185645e-07 -1.2275889e-07 -1.8881087e-06 6.841283e-07
-4.0506984e-05 -5.7180685e-05 2.0909794e-05 -9.763415e-05 -0.075696684 0.076639384 0.2785098 -0.06262576

layer.0.bias f4 [100]
00000000: 4a7e ac32 4e1c c5b4 b02d 80b3 37f0 90b8
00000010: 7066 30b5 5ac5 1e3d 03f4 80b6 bbe5 d238
00000020: e9f0 cfb4 4371 143d 243c 3032 fdc8 beb7
00000030: 36ca 9b38 49d0 94b3 93b1 6832 0841 d0b6
00000040: 35da ccb2 7809 b838 d1f4 a4b5 cd15 7a3c
00000050: 7a79 eab8 a4c8 5c34 81e4 9630 5970 04bb
00000060: c3bb 11bc 99a5 9835 3601 873b a59f 3b31
00000070: 4486 2e31 69bc 8b3b 8baa 1ab3 9df6 f23b
00000080: 3d36 c139 0316 44bc 6021 2939 9761 8f36
00000090: 79f9 8234 784e 8f38 3c29 d1b2 3a85 1fbc
000000a0: c66a 063c e2d0 8eb8 1d07 ea2f eeb4 3a36
000000b0: 3ee0 773d 1878 0ab9 8ce8 91b8 908a 29b9
000000c0: d4d5 2d33 68e4 cab3 4fbb b8b5 ea46 de32
000000d0: b91f ddb6 b412 2039 a502 2db7 a214 86b4
000000e0: fa1d 59b3 5300 8cb7 7d4e b23c 38b6 c3b3
000000f0: 41a6 b7b2 83b9 9734 b7db 96b6 9c1f d83c
00000100: 4404 b13c 5e4c 12b0 77db cc38 bdc1 29b9
00000110: f6d4 27b0 95b8 3ab5 3c99 a0bb a74c 9e34
00000120: 19bc 92bc 9cfa 7636 276e 57b7 fc72 86b7
00000130: cff5 0bb8 b10a f8b8 92f4 bd3c b2f8 5837
00000140: 2fec 263c 19c6 533c be20 3b39 016e 1438
00000150: 3991 80b6 b84c ea35 fbe0 80b1 95c0 e833
00000160: 23e9 213d 3e77 c636 f95a 013d 76bb 67b4
00000170: e4d4 433d 0def 8935 b502 3abc 1d9b 3c33
00000180: e497 aab1 1fe4 82b5 7858 0738 2cef 9133
2.0080865e-08 -3.6714704e-07 -5.968775e-08 -6.9111986e-05 -6.5714175e-07 0.038762428 -3.843104e-06 0.00010056371
-3.873204e-07 0.036240827 1.0258223e-08 -2.2743357e-05 7.428641e-05 -6.929674e-08 1.3544553e-08 -6.2064537e-06
-2.3847955e-08 8.7755674e-05 -1.2290203e-06 0.015263987 -0.00011180616 2.0562089e-07 1.0978881e-09 -0.0020208566
-0.008894864 1.1373078e-06 0.0041200174 2.7302829e-09 2.5396654e-09 0.0042644036 -3.6011027e-08 0.0074146525
0.0003685224 -0.011968139 0.00016129529 4.273093e-06 2.4395902e-07 6.833387e-05 -2.4349553e-08 -0.0097363535
0.008204168 -6.809995e-05 4.2569406e-10 2.7821475e-06 0.06051659 -0.00013205444 -6.957454e-05 -0.00016168715
4.0474177e-08 -9.447905e-08 -1.3763582e-06 2.587645e-08 -6.5900063e-06 0.00015265757 -1.0312219e-05 -2.4974457e-07
-5.0551513e-08 -1.6689452e-05 0.021765942 -9.1135405e-08 -2.1379607e-08 2.826092e-07 -4.4959265e-06 0.02638226
0.02160848 -5.3223015e-10 9.7683565e-05 -0.00016189269 -6.105688e-10 -6.9559e-07 -0.0049010795 2.9485565e-07
-0.017911958 3.680273e-06 -1.28406455e-05 -1.6027589e-05 -3.336911e-05 -0.00011827553 0.02318791 1.2932507e-05
0.0101881465 0.012925648 0.00017845907 3.53884e-05 -3.8316034e-06 1.7456687e-06 -3.7508676e-09 1.0838372e-07
0.039528977 5.9147415e-06 0.0315809 -2.158175e-07 0.04781045 1.0276868e-06 -0.0113531845 4.3913236e-08
-4.964919e-09 -9.752147e-07 3.22689e-05 6.795594e-08

layer.2.weight f4 [1080, 100]
00000000: 03af c631 b73e acb3 74b6 8ab2 18a3 8db6
00000010: 988e 9e33 4ced 233a fdfa dbb4 fdd4 64b7
00000020: c21b 06b2 9ab3 413a fab2 3cb2 c440 2f35
00000030: 10fb a9b6 2ea3 f031 a034 1bb2 ce08 b0b6
00000040: eebd e3af e787 4fb6 fa8c 01b4 7672 7cb9
00000050: ff05 61b5 1423 f7b0 ef10 f12c 8903 8438
00000060: 91de 6b38 f20f b132 603e 8039 95bd 0e2f
00000070: 4696 4a30 bd82 4a38 a7de 37b1 61a0 3f3a
00000080: 12ea 9a37 edf8 6eb9 aa99 a337 866e d436
00000090: 1c7c e7b2 3961 0236 99fc 8532 8857 11b9
000000a0: e492 163a ff40 da36 698b eaae ada4 3736
000000b0: e118 a03a bf69 2ab7 8e83 aeb6 493e 0937
000000c0: 54e0 24af 6079 ee2f 6bdb 2d32 b941 8e30
000000d0: 0258 e8b4 fecf 1038 9531 ae34 8b38 4c32
000000e0: ef88 b631 86ae d5b5 63bd 493a 5b8c 8c30
000000f0: 054c 8331 d00e 8732 cb21 9c36 3bcb 7b3a
00000100: df72 f838 e686 50b0 5313 aab6 187d efb6
00000110: 63b8 23b0 fba3 d033 312f ca39 41a1 30b2
00000120: f5d0 383a 33ce 74b6 54f2 d436 2712 d5b4
00000130: 8498 b0b7 1919 7237 fa04 7d3a 486c edb5
00000140: 96cd 363a cb5f 003a 3e2b d437 bed7 df34
00000150: f393 bfb4 d55c 2634 031a 98b0 5bdd 8931
00000160: 1477 133a fd72 6cb3 5998 6f3a 657b e632
00000170: 76f8 193a 66fc 1bb4 fa44 b039 54d3 a8b0
00000180: cdc4 13ae c514 6633 ed56 e737 a018 36af
00000190: 3c24 a031 1b7e d0b3 ba5a 84b2 292c c3b6
000001a0: 6f65 8633 a6a2 253a aa64 f0b4 632a 92b6
000001b0: c3e2 cfb1 bca7 443a 004e 7b30 02c8 d935
000001c0: cd1f 91b6 98b4 2632 8c5c 2cb2 4ba6 c1b6
000001d0: a01c 84b0 5907 f7b4 dc72 79b4 0fa2 87b9
000001e0: 8ba8 33b5 6ee7 76b1 f433 10af 447a b238
000001f0: 9e7c 6238 60a3 04b3 5d7d 8c39 b8d0 262f
00000200: 5bce 2330 5b1a 1d38 1b98 63b1 6817 4e3a
00000210: e0d2 d237 426b 65b9 926e 1b38 682d f936
00000220: f309 8d32 0064 6335 d103 4b32 e758 0db9
00000230: 0240 263a 8f79 f636 2ba1 b7ae bdd7 3136
00000240: 403b 9d3a 61b6 57b7 bc0e bcb6 1553 bb37
00000250: a4b9 85af 0ce5 882f 5b29 1734 2c7a 9630
00000260: 21a3 06b5 3925 0d38 e943 c735 b304 1732
00000270: c2e0 1d31 7356 d7b5 1389 4a3a 7383 0a32
00000280: e367 6331 f38e 0eb2 ec47 9936 9fd1 7d3a
00000290: aa26 2139 7629 a2b0 81ef bab6 338f 0bb7
000002a0: 7428 31b0 15ad bf33 15a1 cd39 0454 04b2
000002b0: 9ed3 383a 8c3f 8cb6 844d 4637 1f4e f2b4
000002c0: b47f 9db7 63d2 8637 e9a9 7e3a 7c52 78b5
000002d0: 79cd 3f3a ea40 053a e1e7 b337 604c 2634
000002e0: 21e8 cab4 94ad 4d34 a4a5 a0b0 bdd7 9431
000002f0: 29f5 143a 9e2c e432 366f 703a aac0 0433
00000300: a23d 1c3a f4b1 cab3 19a4 a839 fe54 55b0
00000310: 8ac8 82ae fa4c 6933 7571 0138 f915 0030
00000320: 0dfc b831 509b f5b3 ec5c 75b2 86fb aab6
00000330: 5a8a b333 7a42 263a 5f12 7bb4 5b16 b6b6
00000340: eca4 c8b2 55e4 483a 6438 0432 1315 6d36
00000350: c555 5036 52aa 1832 306c 57b2 570f c5b6
00000360: 2c8f e2b0 f24f 9736 f436 47b4 7b3b abb9
00000370: 7d9b c0b5 e987 a3b1 96df 562f 523f 6238
00000380: 222f 6538 0e1d eb33 26ac 8139 1132 0d2f
00000390: 900f 582f 57e4 a038 df10 06b2 0a66 453a
000003a0: c04b fd37 f102 83b9 86e5 0838 d621 aa36
000003b0: 9bad df33 b3dd f234 fbd5 7f32 0231 26b9
000003c0: df07 153a 3e6b acb6 9c96 a6ae 4110 4d36
000003d0: 6228 a13a 9dec 7ab7 1adf 7bb6 3aa5 c137
000003e0: b343 09b0 bef7 1fb0 346b a233 ec43 a0b0
000003f0: 973b 08b5 249e 1238 c89f 9b35 d8c6 9bb0
5.782455e-09 -8.020782e-08 -1.6148284e-08 -4.221114e-06 7.383386e-08 0.00062533165 -4.0974547e-07 -1.3639449e-05
-7.806138e-09 0.00073891284 -1.0983735e-08 6.5286827e-07 -5.06582e-06 7.0034707e-09 -9.034153e-09 -5.2462337e-06
-4.1426013e-10 -3.092451e-06 -1.2065348e-07 -0.00024075233 -8.382776e-07 -1.7981585e-09 6.851512e-12 6.294909e-05
5.6235647e-05 2.0612763e-08 0.00024460535 1.2982178e-10 7.3700723e-10 4.8282312e-05 -2.6756568e-09 0.000730997
1.8467228e-05 -0.00022790181 1.950267e-05 6.330959e-06 -2.6948378e-08 1.94281e-06 1.5598106e-08 -0.00013860886
0.00057439343 6.504473e-06 -1.0665852e-10 2.736498e-06 0.0012214446 -1.01574105e-05 -5.200919e-06 8.180338e-06
-1.499541e-10 4.337819e-10 1.0119815e-08 1.0350539e-09 -4.3277402e-07 3.4525983e-05 3.24461e-07 1.1887219e-08
5.3124647e-09 -1.592053e-06 0.00076957623 1.0226232e-09 3.821244e-09 1.5722804e-08 4.6530963e-06 0.0009605174
0.00011846958 -7.586166e-10 -5.0686444e-06 -7.137318e-06 -5.9561084e-10 9.715583e-08 0.00038563603 -1.0281213e-08
0.000705018 -3.6478857e-06 6.346303e-06 -3.968755e-07 -2.1051856e-05 1.44301675e-05 0.00096519256 -1.768939e-06
0.0006973384 0.0004897087 2.5292506e-05 4.169396e-07 -3.568417e-07 1.5493727e-07 -1.1066849e-09 4.01239e-09
0.0005625349 -5.5052613e-08 0.0009139828 2.6831637e-08 0.00058735104 -1.4527322e-07 0.00033620727 -1.2283672e-09
-3.3598724e-11 5.3569938e-08 2.7577824e-05 -1.6561552e-10 4.6607322e-09 -9.708693e-08 -1.540808e-08 -5.816594e-06
6.258312e-08 0.0006318487 -4.4776726e-07 -4.3560735e-06 -6.0502727e-09 0.0007501801 9.142411e-10 1.622597e-06
-4.325039e-06 9.703534e-09 -1.003276e-08 -5.7712073e-06 -9.6124e-10 -4.601268e-07 -2.3231718e-07 -0.0002586995
-6.692796e-07 -3.5929264e-09 -1.3115181e-10 8.510475e-05 5.3998658e-05 -3.0882234e-08 0.00026796284 1.5171764e-10
5.9592303e-10 3.7456262e-05 -3.311931e-09 0.0007861764 2.5132147e-05 -0.00021879098 3.7057856e-05 7.4260643e-06
1.6419085e-08 8.470961e-07 1.1817023e-08 -0.00013479927 0.00063419354 7.3455226e-06 -8.350506e-11 2.6500632e-06
0.0011995807 -1.2857462e-05 -5.604552e-06 2.2330825e-05 -2.4324465e-10 2.4901003e-10 1.4078016e-07 1.094866e-09
-5.0156274e-07 3.3651686e-05 1.484642e-06 8.790425e-09 2.2974267e-09 -1.6043908e-06 0.0007726114 8.062545e-09
3.30919e-09 -8.297991e-09 4.568128e-06 0.000968242 0.0001536856 -1.1798835e-09 -5.571114e-06 -8.318387e-06
-6.444971e-10 8.925614e-08 0.00039220662 -7.702514e-09 0.00070505764 -4.179723e-06 1.1819768e-05 -4.5132853e-07
-1.8775325e-05 1.6072014e-05 0.00097146496 -9.250723e-07 0.00073166896 0.00050832203 2.144644e-05 1.548774e-07
-3.7794328e-07 1.915526e-07 -1.168861e-09 4.3318935e-09 0.00056822837 2.6562983e-08 0.0009171845 3.0908872e-08
0.0005960112 -9.4387275e-08 0.0003216572 -7.760973e-10 -5.9473385e-11 5.431955e-08 3.086166e-05 4.6597354e-10
5.3837597e-09 -1.1436953e-07 -1.4282005e-08 -5.095676e-06 8.360503e-08 0.0006342303 -2.338288e-07 -5.426625e-06
-2.3358062e-08 0.00076634187 7.696233e-09 3.5328019e-06 3.104434e-06 8.886291e-09 -1.2539246e-08 -5.8728433e-06
-1.6484356e-09 4.5094575e-06 -1.8553311e-07 -0.00032659978 -1.4350368e-06 -4.7593756e-09 1.954262e-10 5.394157e-05
5.464175e-05 1.0948325e-07 0.00024733058 1.2841662e-10 1.9650614e-10 7.671926e-05 -7.803663e-09 0.00075301586
3.0195224e-05 -0.0002498846 3.2638687e-05 5.070334e-06 1.04158254e-07 4.523732e-07 1.4891607e-08 -0.0001584925
0.0005685072 -5.138484e-06 -7.5755596e-11 3.0556841e-06 0.001229536 -1.4956252e-05 -3.7531777e-06 2.3084332e-05
-4.9936516e-10 -5.8195926e-10 7.563213e-08 -1.1660837e-09 -5.075066e-07 3.4956392e-05 1.1594902e-06 -1.1334249e-09

layer.2.bias f4 [1080]
00000000: 5e74 0d3a 4758 143a 9986 173a 374f 113a
00000010: b0d0 183a 4bc7 fc3a c889 fa3a 0932 f83a
00000020: ed06 4e3b bb7d 3939 2079 0c3a 2588 9639
00000030: 8d4f e8b5 206e ab32 7be5 e63b 5311 823a
00000040: e938 1b3a 31eb b539 a97f 7138 6163 36b2
00000050: c7e1 2ab2 081e ec3b 236b fe3b 72f9 073c
00000060: 3072 943a bb38 343a ee2f fb39 e3fb 9c38
00000070: b3b6 a135 1f78 ba36 374a 97b8 4a81 e93b
00000080: 0c0c 003c 8eb0 0a3c e7ad 123c 788f 1a3c
00000090: 7301 4c3a fd1a 283a 0980 9638 f693 e137
000000a0: 6d92 e5b1 25f1 2db5 97ac 073c b4dd 123c
000000b0: da4c 1c3c e99f 653a 049e d938 ae18 56b5
000000c0: aa17 afb5 8cd6 1a3c 70eb 3a3c c542 3a39
000000d0: 9833 bfb7 985e 3d3c bb86 433c b507 483c
000000e0: 3f98 a73a f088 9e39 70b2 a3b8 8da9 3a3c
000000f0: 831d 433c 8ede 493c 7202 4f3c e72f 513c
00000100: 686a cb3a a4bb 9e3a efd3 c23a e3c9 d739
00000110: 6d4b cdb8 f306 31b2 aa8a 473c a7ef 4e3c
00000120: fdea 533c 379e 563c 4ed0 573c 2485 493b
00000130: 29cc ca3a 4aa2 ab3a a8f7 e13a d6a2 163a
00000140: 511a 03b9 9051 52b8 c408 513c ca97 563c
00000150: becb 593c bf6a 5b3c 61ee 593c ce32 993b
00000160: 8b8f 493b 22c0 d03a 28c0 b83a 7369 e33a
00000170: d6f9 433a a46f 1fb9 32e4 c3b8 e07b dcb6
00000180: 8f77 573c 916e 5b3c e26a 5c3c 28a2 5a3c
00000190: 62e1 573c ff1d cb3b 1be3 973b 2c6b 483b
000001a0: a157 d43a 21aa c23a ad82 eb3a 3322 603a
000001b0: b822 00b9 40de 8ab8 c371 593c 3ad4 5a3c
000001c0: fa24 5a3c 62dc 563c 3c1b 513c 3b4b 943b
000001d0: 180f 3e3b 74b3 d13a a2a0 db3a efa4 ff3a
000001e0: e150 733a 157e 7ab8 66fe 7eb9 5e2b f23b
000001f0: 483c 583c 52d9 563c 5e02 543c a2ba 4e3c
00000200: 820a 473c 56c3 373b f26a d73a 4fc5 f63a
00000210: b77e 033b 0c50 7b3a 2686 e7b8 3a67 ca3b
00000220: 9b00 eb3b 6613 053c 1b15 523c cf56 513c
00000230: 68d8 4e3c 4884 483c ba23 423c a21b 373c
00000240: ffde 853b 5ec4 2b3b 2025 df3a 23c2 103b
00000250: b241 043b 1c54 6b3a 6553 95b8 bd10 a03b
00000260: 4a3f c13b bd13 e23b 1051 ff3b 6ab8 0d3c
00000270: 121f 273c b013 4a3c 6796 463c 3cc3 413c
00000280: 78c5 393c 4dae 2f3c 7110 233c 2a37 ab3b
00000290: d11d 743b 025b 233b cf32 e83a 0a75 253b
000002a0: 2058 bc3a 05bb 3a3a ff4a b63b 1b26 d43b
000002b0: 6e9e f03b 1186 123c 08be 1d3c e6cb 273c
000002c0: 7255 3c3c c266 363c bad5 2f3c 6bca 253c
000002d0: 4162 1a3c 651c 0a3c 180f f03b 6b2f 5e3b
000002e0: c8f3 1e3b 026c 043b 7d63 433b 7d2e a93a
000002f0: c059 c539 f838 c53b 7a7e f93b da05 093c
00000300: d1fc 123c 5151 1c3c d042 243c a5a7 223c
00000310: bbfc 183c d9ea 0d3c 37d0 fb3b 7926 d93b
00000320: 0a46 b23b b136 493b 43e2 193b 8106 1b3b
00000330: 831e 633b 67fe 523a 6815 acb8 6e64 0aba
00000340: 0730 f93b 7f53 063c 23ab 0e3c 1962 243c
00000350: 6b6d 093c 393b fc3b cb4c e03b c378 bc3b
00000360: 7261 9a3b 4d43 703b 69ce 383b 2991 273b
00000370: dabe 3c3b 22ec 823b ea36 f337 c132 e8b9
00000380: cbe3 62ba a7c5 b5ba d731 ef3b 3e0a 113c
00000390: c123 123c 7681 0f3c 630a d73b 0261 bd3b
000003a0: 1aeb 9f3b fd79 803b da69 4e3b 5e01 383b
000003b0: 70d0 3b3b 1491 643b 8bad 973b 14bf 28ba
000003c0: 8c25 8bba fb44 afba 4799 eeba 1f8e 893b
000003d0: 106b bf3b f210 cd3b a25d da3b 777c f63b
000003e0: 37dd f93b 876f fa3b 57cf f63b fdb9 f03b
000003f0: 1a5d db3b ac51 9a3b 9ab0 7e3b 65a6 583b
0.0005396063 0.00056589063 0.00057802495 0.0005543115 0.00058294367 0.0019285468 0.0019114548 0.001893581
0.0031437234 0.00017689813 0.0005358625 0.00028711665 -1.7308499e-06 1.9957099e-08 0.007046399 0.0009923376
0.0005921261 0.00034698242 5.757777e-05 -1.061639e-08 -9.946638e-09 0.0072057284 0.0077642365 0.0082992185
0.0011325534 0.00068749086 0.0004791016 7.485577e-05 1.2048607e-06 5.557216e-06 -7.214065e-05 0.007126008
0.007815372 0.0084649455 0.008952594 0.00943362 0.00077821984 0.0006412713 7.176406e-05 2.689099e-05
-6.681424e-09 -6.4798434e-07 0.008280895 0.008963991 0.009539807 0.0008759485 0.00010376799 -7.9757126e-07
-1.3045403e-06 0.009450566 0.011408672 0.00017763216 -2.2793e-05 0.011558197 0.011933978 0.012208869
0.0012786462 0.00030238135 -7.805682e-05 0.011392963 0.011908892 0.012321128 0.01263486 0.012767768
0.0015519382 0.0012110365 0.0014864187 0.00041158413 -9.789211e-05 -1.0304336e-08 0.012179056 0.01263038
0.012934444 0.013099245 0.013172222 0.0030749524 0.0015472221 0.001309463 0.0017239945 0.00057463103
-0.00012502937 -5.0143863e-05 0.012758438 0.013097713 0.013293205 0.0133921495 0.013301463 0.004675246
0.0030755724 0.0015926401 0.0014095353 0.0017350152 0.0007475888 -0.00015205011 -9.340829e-05 -6.570932e-06
0.013151064 0.01339306 0.013453217 0.013344325 0.013176294 0.006198644 0.0046352274 0.0030581458
0.0016200432 0.0014851728 0.0017968022 0.0008550018 -0.00012219965 -6.62175e-05 0.013271752 0.013356263
0.01331448 0.013114067 0.012762841 0.0045255697 0.0029000696 0.0015998916 0.0016756246 0.001950411
0.0009281766 -5.9722068e-05 -0.00024318098 0.0073904237 0.013197966 0.013113337 0.0129400175 0.012617739
0.012148501 0.0028040013 0.001643507 0.0018827113 0.0020064542 0.0009586818 -0.000110399254 0.0061768563
0.007171703 0.008122301 0.012822415 0.012777044 0.012624837 0.01223857 0.011849338 0.011176022
0.004085421 0.0026209573 0.0017024614 0.002208837 0.002018076 0.0008977072 -7.120407e-05 0.004884808
0.005897437 0.0068993256 0.007791646 0.008649925 0.010200279 0.012333795 0.01212082 0.011826333
0.011338584 0.010722709 0.00995265 0.005225082 0.0037249217 0.002492607 0.0017715337 0.0025246763
0.0014369525 0.0007123205 0.0055631394 0.006474269 0.007343105 0.008943097 0.0096278265 0.010241484
0.011494981 0.011132898 0.010732109 0.010119061 0.00942284 0.008429621 0.007326018 0.0033902775
0.0024254192 0.002020598 0.0029813938 0.0012907531 0.00037641637 0.006018754 0.007613954 0.0083632115
0.008971409 0.009540872 0.010025695 0.009927665 0.009337599 0.008661949 0.0076847333 0.0066269008
0.005440478 0.0030702765 0.002348081 0.0023655 0.0034655638 0.0008048773 -8.205586e-05 -0.00052792474
0.0076046023 0.008198618 0.008707794 0.010033154 0.008387904 0.0076974896 0.006845092 0.0057517006
0.0047113234 0.0036661208 0.0028199202 0.00255687 0.002880028 0.0039954344 2.8993429e-05 -0.00044288303
-0.00086551596 -0.0013868109 0.0072996425 0.00885254 0.008919657 0.008758893 0.0065625175 0.0057793865
0.004880321 0.003920792 0.0031496198 0.0028076987 0.0028658174 0.0034876512 0.004628842 -0.0006437164
-0.0010616048 -0.0013371998 -0.0018203639 0.0041978504 0.0058416203 0.0062581236 0.006663994 0.0075221616
0.007625248 0.0076426896 0.007532041 0.0073463903 0.006694448 0.004709443 0.0038862587 0.0033058163
